======================================================================================================================================================
Layer (type:depth-idx)                             Input Shape               Output Shape              Param #                   Mult-Adds
======================================================================================================================================================
MSTM                                               [10, 27, 224, 224]        [10, 2]                   10                        --
├─TBRANCH: 1-1                                     [80, 3, 224, 224]         [80, 2]                   --                        --
│    └─Sequential: 2-1                             [80, 3, 224, 224]         [80, 64, 112, 112]        --                        --
│    │    └─Conv2d: 3-1                            [80, 3, 224, 224]         [80, 32, 112, 112]        864                       867,041,280
│    │    └─BatchNorm2d: 3-2                       [80, 32, 112, 112]        [80, 32, 112, 112]        64                        5,120
│    │    └─ReLU: 3-3                              [80, 32, 112, 112]        [80, 32, 112, 112]        --                        --
│    │    └─Conv2d: 3-4                            [80, 32, 112, 112]        [80, 32, 112, 112]        9,216                     9,248,440,320
│    │    └─BatchNorm2d: 3-5                       [80, 32, 112, 112]        [80, 32, 112, 112]        64                        5,120
│    │    └─ReLU: 3-6                              [80, 32, 112, 112]        [80, 32, 112, 112]        --                        --
│    │    └─Conv2d: 3-7                            [80, 32, 112, 112]        [80, 64, 112, 112]        18,432                    18,496,880,640
│    └─BatchNorm2d: 2-2                            [80, 64, 112, 112]        [80, 64, 112, 112]        128                       10,240
│    └─ReLU: 2-3                                   [80, 64, 112, 112]        [80, 64, 112, 112]        --                        --
│    └─MaxPool2d: 2-4                              [80, 64, 112, 112]        [80, 64, 56, 56]          --                        --
│    └─Sequential: 2-5                             [80, 64, 56, 56]          [80, 256, 56, 56]         --                        --
│    │    └─TSBM: 3-8                              [80, 64, 56, 56]          [80, 256, 56, 56]         24,832                    --
│    │    │    └─Conv2d: 4-1                       [80, 64, 56, 56]          [80, 32, 56, 56]          2,048                     513,802,240
│    │    │    └─BatchNorm2d: 4-2                  [80, 32, 56, 56]          [80, 32, 56, 56]          64                        5,120
│    │    │    └─ReLU: 4-3                         [80, 32, 56, 56]          [80, 32, 56, 56]          --                        --
│    │    │    └─Conv2d: 4-4                       [80, 64, 56, 56]          [80, 32, 56, 56]          2,048                     513,802,240
│    │    │    └─BatchNorm2d: 4-5                  [80, 32, 56, 56]          [80, 32, 56, 56]          64                        5,120
│    │    │    └─ReLU: 4-6                         [80, 32, 56, 56]          [80, 32, 56, 56]          --                        --
│    │    │    └─SSM_HiPPO: 4-7                    [80, 32, 56, 56]          [80, 32, 56, 56]          6,422,594                 --
│    │    │    │    └─Linear: 5-1                  [10, 64]                  [10, 100352]              6,422,528                 64,225,280
│    │    │    │    └─Linear: 5-2                  [10, 64]                  [10, 100352]              (recursive)               64,225,280
│    │    │    │    └─Linear: 5-3                  [10, 64]                  [10, 100352]              (recursive)               64,225,280
│    │    │    │    └─Linear: 5-4                  [10, 64]                  [10, 100352]              (recursive)               64,225,280
│    │    │    │    └─Linear: 5-5                  [10, 64]                  [10, 100352]              (recursive)               64,225,280
│    │    │    │    └─Linear: 5-6                  [10, 64]                  [10, 100352]              (recursive)               64,225,280
│    │    │    │    └─Linear: 5-7                  [10, 64]                  [10, 100352]              (recursive)               64,225,280
│    │    │    │    └─Linear: 5-8                  [10, 64]                  [10, 100352]              (recursive)               64,225,280
│    │    │    └─ReLU: 4-8                         [80, 32, 56, 56]          [80, 32, 56, 56]          --                        --
│    │    │    └─TIM_Module: 4-9                   [80, 32, 56, 56]          [80, 32, 56, 56]          --                        --
│    │    │    │    └─Conv2d: 5-9                  [80, 32, 56, 56]          [80, 2, 56, 56]           64                        16,056,320
│    │    │    │    └─BatchNorm2d: 5-10            [80, 2, 56, 56]           [80, 2, 56, 56]           4                         320
│    │    │    │    └─Conv2d: 5-11                 [560, 2, 56, 8]           [560, 2, 56, 8]           6                         1,505,280
│    │    │    │    └─AvgPool2d: 5-12              [560, 2, 56, 8]           [560, 2, 28, 8]           --                        --
│    │    │    │    └─Sequential: 5-13             [560, 2, 28, 8]           [560, 2, 28, 8]           16                        1,507,520
│    │    │    │    └─Sequential: 5-14             [560, 2, 56, 8]           [560, 2, 56, 8]           16                        3,012,800
│    │    │    │    └─Sequential: 5-15             [560, 2, 56, 8]           [560, 32, 56, 8]          128                       16,092,160
│    │    │    │    └─Sigmoid: 5-16                [560, 32, 56, 8]          [560, 32, 56, 8]          --                        --
│    │    │    │    └─Conv2d: 5-17                 [560, 2, 8, 56]           [560, 2, 8, 56]           6                         1,505,280
│    │    │    │    └─AvgPool2d: 5-18              [560, 2, 8, 56]           [560, 2, 8, 28]           --                        --
│    │    │    │    └─Sequential: 5-19             [560, 2, 8, 28]           [560, 2, 8, 28]           16                        1,507,520
│    │    │    │    └─Sequential: 5-20             [560, 2, 8, 56]           [560, 2, 8, 56]           16                        3,012,800
│    │    │    │    └─Sequential: 5-21             [560, 2, 8, 56]           [560, 32, 8, 56]          128                       16,092,160
│    │    │    │    └─Sigmoid: 5-22                [560, 32, 8, 56]          [560, 32, 8, 56]          --                        --
│    │    │    └─ISM_Module: 4-10                  [80, 32, 56, 56]          [80, 32, 56, 56]          --                        --
│    │    │    │    └─AdaptiveAvgPool2d: 5-23      [80, 32, 56, 56]          [80, 32, 1, 1]            --                        --
│    │    │    │    └─Conv1d: 5-24                 [80, 1, 32]               [80, 1, 32]               3                         7,680
│    │    │    │    └─Sigmoid: 5-25                [80, 32, 1, 1]            [80, 32, 1, 1]            --                        --
│    │    │    └─ShiftModule: 4-11                 [80, 32, 56, 56]          [80, 32, 56, 56]          --                        --
│    │    │    │    └─Conv1d: 5-26                 [31360, 32, 8]            [31360, 32, 8]            96                        24,084,480
│    │    │    └─Sequential: 4-12                  [80, 32, 56, 56]          [80, 32, 56, 56]          --                        --
│    │    │    │    └─Conv2d: 5-27                 [80, 32, 56, 56]          [80, 32, 56, 56]          9,216                     2,312,110,080
│    │    │    │    └─BatchNorm2d: 5-28            [80, 32, 56, 56]          [80, 32, 56, 56]          64                        5,120
│    │    │    └─ReLU: 4-13                        [80, 32, 56, 56]          [80, 32, 56, 56]          --                        --
│    │    │    └─Conv2d: 4-14                      [80, 64, 56, 56]          [80, 256, 56, 56]         16,384                    4,110,417,920
│    │    │    └─BatchNorm2d: 4-15                 [80, 256, 56, 56]         [80, 256, 56, 56]         512                       40,960
│    │    │    └─Sequential: 4-16                  [80, 64, 56, 56]          [80, 256, 56, 56]         --                        --
│    │    │    │    └─AvgPool2d: 5-29              [80, 64, 56, 56]          [80, 64, 56, 56]          --                        --
│    │    │    │    └─Conv2d: 5-30                 [80, 64, 56, 56]          [80, 256, 56, 56]         16,384                    4,110,417,920
│    │    │    │    └─BatchNorm2d: 5-31            [80, 256, 56, 56]         [80, 256, 56, 56]         512                       40,960
│    │    │    └─ReLU: 4-17                        [80, 256, 56, 56]         [80, 256, 56, 56]         --                        --
│    │    └─TSBM: 3-9                              [80, 256, 56, 56]         [80, 256, 56, 56]         24,832                    --
│    │    │    └─Conv2d: 4-18                      [80, 256, 56, 56]         [80, 32, 56, 56]          8,192                     2,055,208,960
│    │    │    └─BatchNorm2d: 4-19                 [80, 32, 56, 56]          [80, 32, 56, 56]          64                        5,120
│    │    │    └─ReLU: 4-20                        [80, 32, 56, 56]          [80, 32, 56, 56]          --                        --
│    │    │    └─Conv2d: 4-21                      [80, 256, 56, 56]         [80, 32, 56, 56]          8,192                     2,055,208,960
│    │    │    └─BatchNorm2d: 4-22                 [80, 32, 56, 56]          [80, 32, 56, 56]          64                        5,120
│    │    │    └─ReLU: 4-23                        [80, 32, 56, 56]          [80, 32, 56, 56]          --                        --
│    │    │    └─SSM_HiPPO: 4-24                   [80, 32, 56, 56]          [80, 32, 56, 56]          6,422,594                 --
│    │    │    │    └─Linear: 5-32                 [10, 64]                  [10, 100352]              6,422,528                 64,225,280
│    │    │    │    └─Linear: 5-33                 [10, 64]                  [10, 100352]              (recursive)               64,225,280
│    │    │    │    └─Linear: 5-34                 [10, 64]                  [10, 100352]              (recursive)               64,225,280
│    │    │    │    └─Linear: 5-35                 [10, 64]                  [10, 100352]              (recursive)               64,225,280
│    │    │    │    └─Linear: 5-36                 [10, 64]                  [10, 100352]              (recursive)               64,225,280
│    │    │    │    └─Linear: 5-37                 [10, 64]                  [10, 100352]              (recursive)               64,225,280
│    │    │    │    └─Linear: 5-38                 [10, 64]                  [10, 100352]              (recursive)               64,225,280
│    │    │    │    └─Linear: 5-39                 [10, 64]                  [10, 100352]              (recursive)               64,225,280
│    │    │    └─ReLU: 4-25                        [80, 32, 56, 56]          [80, 32, 56, 56]          --                        --
│    │    │    └─TIM_Module: 4-26                  [80, 32, 56, 56]          [80, 32, 56, 56]          --                        --
│    │    │    │    └─Conv2d: 5-40                 [80, 32, 56, 56]          [80, 2, 56, 56]           64                        16,056,320
│    │    │    │    └─BatchNorm2d: 5-41            [80, 2, 56, 56]           [80, 2, 56, 56]           4                         320
│    │    │    │    └─Conv2d: 5-42                 [560, 2, 56, 8]           [560, 2, 56, 8]           6                         1,505,280
│    │    │    │    └─AvgPool2d: 5-43              [560, 2, 56, 8]           [560, 2, 28, 8]           --                        --
│    │    │    │    └─Sequential: 5-44             [560, 2, 28, 8]           [560, 2, 28, 8]           16                        1,507,520
│    │    │    │    └─Sequential: 5-45             [560, 2, 56, 8]           [560, 2, 56, 8]           16                        3,012,800
│    │    │    │    └─Sequential: 5-46             [560, 2, 56, 8]           [560, 32, 56, 8]          128                       16,092,160
│    │    │    │    └─Sigmoid: 5-47                [560, 32, 56, 8]          [560, 32, 56, 8]          --                        --
│    │    │    │    └─Conv2d: 5-48                 [560, 2, 8, 56]           [560, 2, 8, 56]           6                         1,505,280
│    │    │    │    └─AvgPool2d: 5-49              [560, 2, 8, 56]           [560, 2, 8, 28]           --                        --
│    │    │    │    └─Sequential: 5-50             [560, 2, 8, 28]           [560, 2, 8, 28]           16                        1,507,520
│    │    │    │    └─Sequential: 5-51             [560, 2, 8, 56]           [560, 2, 8, 56]           16                        3,012,800
│    │    │    │    └─Sequential: 5-52             [560, 2, 8, 56]           [560, 32, 8, 56]          128                       16,092,160
│    │    │    │    └─Sigmoid: 5-53                [560, 32, 8, 56]          [560, 32, 8, 56]          --                        --
│    │    │    └─ISM_Module: 4-27                  [80, 32, 56, 56]          [80, 32, 56, 56]          --                        --
│    │    │    │    └─AdaptiveAvgPool2d: 5-54      [80, 32, 56, 56]          [80, 32, 1, 1]            --                        --
│    │    │    │    └─Conv1d: 5-55                 [80, 1, 32]               [80, 1, 32]               3                         7,680
│    │    │    │    └─Sigmoid: 5-56                [80, 32, 1, 1]            [80, 32, 1, 1]            --                        --
│    │    │    └─ShiftModule: 4-28                 [80, 32, 56, 56]          [80, 32, 56, 56]          --                        --
│    │    │    │    └─Conv1d: 5-57                 [31360, 32, 8]            [31360, 32, 8]            96                        24,084,480
│    │    │    └─Sequential: 4-29                  [80, 32, 56, 56]          [80, 32, 56, 56]          --                        --
│    │    │    │    └─Conv2d: 5-58                 [80, 32, 56, 56]          [80, 32, 56, 56]          9,216                     2,312,110,080
│    │    │    │    └─BatchNorm2d: 5-59            [80, 32, 56, 56]          [80, 32, 56, 56]          64                        5,120
│    │    │    └─ReLU: 4-30                        [80, 32, 56, 56]          [80, 32, 56, 56]          --                        --
│    │    │    └─Conv2d: 4-31                      [80, 64, 56, 56]          [80, 256, 56, 56]         16,384                    4,110,417,920
│    │    │    └─BatchNorm2d: 4-32                 [80, 256, 56, 56]         [80, 256, 56, 56]         512                       40,960
│    │    │    └─ReLU: 4-33                        [80, 256, 56, 56]         [80, 256, 56, 56]         --                        --
│    │    └─TSBM: 3-10                             [80, 256, 56, 56]         [80, 256, 56, 56]         24,832                    --
│    │    │    └─Conv2d: 4-34                      [80, 256, 56, 56]         [80, 32, 56, 56]          8,192                     2,055,208,960
│    │    │    └─BatchNorm2d: 4-35                 [80, 32, 56, 56]          [80, 32, 56, 56]          64                        5,120
│    │    │    └─ReLU: 4-36                        [80, 32, 56, 56]          [80, 32, 56, 56]          --                        --
│    │    │    └─Conv2d: 4-37                      [80, 256, 56, 56]         [80, 32, 56, 56]          8,192                     2,055,208,960
│    │    │    └─BatchNorm2d: 4-38                 [80, 32, 56, 56]          [80, 32, 56, 56]          64                        5,120
│    │    │    └─ReLU: 4-39                        [80, 32, 56, 56]          [80, 32, 56, 56]          --                        --
│    │    │    └─SSM_HiPPO: 4-40                   [80, 32, 56, 56]          [80, 32, 56, 56]          6,422,594                 --
│    │    │    │    └─Linear: 5-60                 [10, 64]                  [10, 100352]              6,422,528                 64,225,280
│    │    │    │    └─Linear: 5-61                 [10, 64]                  [10, 100352]              (recursive)               64,225,280
│    │    │    │    └─Linear: 5-62                 [10, 64]                  [10, 100352]              (recursive)               64,225,280
│    │    │    │    └─Linear: 5-63                 [10, 64]                  [10, 100352]              (recursive)               64,225,280
│    │    │    │    └─Linear: 5-64                 [10, 64]                  [10, 100352]              (recursive)               64,225,280
│    │    │    │    └─Linear: 5-65                 [10, 64]                  [10, 100352]              (recursive)               64,225,280
│    │    │    │    └─Linear: 5-66                 [10, 64]                  [10, 100352]              (recursive)               64,225,280
│    │    │    │    └─Linear: 5-67                 [10, 64]                  [10, 100352]              (recursive)               64,225,280
│    │    │    └─ReLU: 4-41                        [80, 32, 56, 56]          [80, 32, 56, 56]          --                        --
│    │    │    └─TIM_Module: 4-42                  [80, 32, 56, 56]          [80, 32, 56, 56]          --                        --
│    │    │    │    └─Conv2d: 5-68                 [80, 32, 56, 56]          [80, 2, 56, 56]           64                        16,056,320
│    │    │    │    └─BatchNorm2d: 5-69            [80, 2, 56, 56]           [80, 2, 56, 56]           4                         320
│    │    │    │    └─Conv2d: 5-70                 [560, 2, 56, 8]           [560, 2, 56, 8]           6                         1,505,280
│    │    │    │    └─AvgPool2d: 5-71              [560, 2, 56, 8]           [560, 2, 28, 8]           --                        --
│    │    │    │    └─Sequential: 5-72             [560, 2, 28, 8]           [560, 2, 28, 8]           16                        1,507,520
│    │    │    │    └─Sequential: 5-73             [560, 2, 56, 8]           [560, 2, 56, 8]           16                        3,012,800
│    │    │    │    └─Sequential: 5-74             [560, 2, 56, 8]           [560, 32, 56, 8]          128                       16,092,160
│    │    │    │    └─Sigmoid: 5-75                [560, 32, 56, 8]          [560, 32, 56, 8]          --                        --
│    │    │    │    └─Conv2d: 5-76                 [560, 2, 8, 56]           [560, 2, 8, 56]           6                         1,505,280
│    │    │    │    └─AvgPool2d: 5-77              [560, 2, 8, 56]           [560, 2, 8, 28]           --                        --
│    │    │    │    └─Sequential: 5-78             [560, 2, 8, 28]           [560, 2, 8, 28]           16                        1,507,520
│    │    │    │    └─Sequential: 5-79             [560, 2, 8, 56]           [560, 2, 8, 56]           16                        3,012,800
│    │    │    │    └─Sequential: 5-80             [560, 2, 8, 56]           [560, 32, 8, 56]          128                       16,092,160
│    │    │    │    └─Sigmoid: 5-81                [560, 32, 8, 56]          [560, 32, 8, 56]          --                        --
│    │    │    └─ISM_Module: 4-43                  [80, 32, 56, 56]          [80, 32, 56, 56]          --                        --
│    │    │    │    └─AdaptiveAvgPool2d: 5-82      [80, 32, 56, 56]          [80, 32, 1, 1]            --                        --
│    │    │    │    └─Conv1d: 5-83                 [80, 1, 32]               [80, 1, 32]               3                         7,680
│    │    │    │    └─Sigmoid: 5-84                [80, 32, 1, 1]            [80, 32, 1, 1]            --                        --
│    │    │    └─ShiftModule: 4-44                 [80, 32, 56, 56]          [80, 32, 56, 56]          --                        --
│    │    │    │    └─Conv1d: 5-85                 [31360, 32, 8]            [31360, 32, 8]            96                        24,084,480
│    │    │    └─Sequential: 4-45                  [80, 32, 56, 56]          [80, 32, 56, 56]          --                        --
│    │    │    │    └─Conv2d: 5-86                 [80, 32, 56, 56]          [80, 32, 56, 56]          9,216                     2,312,110,080
│    │    │    │    └─BatchNorm2d: 5-87            [80, 32, 56, 56]          [80, 32, 56, 56]          64                        5,120
│    │    │    └─ReLU: 4-46                        [80, 32, 56, 56]          [80, 32, 56, 56]          --                        --
│    │    │    └─Conv2d: 4-47                      [80, 64, 56, 56]          [80, 256, 56, 56]         16,384                    4,110,417,920
│    │    │    └─BatchNorm2d: 4-48                 [80, 256, 56, 56]         [80, 256, 56, 56]         512                       40,960
│    │    │    └─ReLU: 4-49                        [80, 256, 56, 56]         [80, 256, 56, 56]         --                        --
│    └─Sequential: 2-6                             [80, 256, 56, 56]         [80, 512, 28, 28]         --                        --
│    │    └─TSBM: 3-11                             [80, 256, 56, 56]         [80, 512, 28, 28]         98,816                    --
│    │    │    └─Conv2d: 4-50                      [80, 256, 56, 56]         [80, 64, 56, 56]          16,384                    4,110,417,920
│    │    │    └─BatchNorm2d: 4-51                 [80, 64, 56, 56]          [80, 64, 56, 56]          128                       10,240
│    │    │    └─ReLU: 4-52                        [80, 64, 56, 56]          [80, 64, 56, 56]          --                        --
│    │    │    └─Conv2d: 4-53                      [80, 256, 56, 56]         [80, 64, 56, 56]          16,384                    4,110,417,920
│    │    │    └─BatchNorm2d: 4-54                 [80, 64, 56, 56]          [80, 64, 56, 56]          128                       10,240
│    │    │    └─ReLU: 4-55                        [80, 64, 56, 56]          [80, 64, 56, 56]          --                        --
│    │    │    └─SSM_HiPPO: 4-56                   [80, 64, 56, 56]          [80, 64, 56, 56]          12,845,122                --
│    │    │    │    └─Linear: 5-88                 [10, 64]                  [10, 200704]              12,845,056                128,450,560
│    │    │    │    └─Linear: 5-89                 [10, 64]                  [10, 200704]              (recursive)               128,450,560
│    │    │    │    └─Linear: 5-90                 [10, 64]                  [10, 200704]              (recursive)               128,450,560
│    │    │    │    └─Linear: 5-91                 [10, 64]                  [10, 200704]              (recursive)               128,450,560
│    │    │    │    └─Linear: 5-92                 [10, 64]                  [10, 200704]              (recursive)               128,450,560
│    │    │    │    └─Linear: 5-93                 [10, 64]                  [10, 200704]              (recursive)               128,450,560
│    │    │    │    └─Linear: 5-94                 [10, 64]                  [10, 200704]              (recursive)               128,450,560
│    │    │    │    └─Linear: 5-95                 [10, 64]                  [10, 200704]              (recursive)               128,450,560
│    │    │    └─ReLU: 4-57                        [80, 64, 56, 56]          [80, 64, 56, 56]          --                        --
│    │    │    └─TIM_Module: 4-58                  [80, 64, 56, 56]          [80, 64, 56, 56]          --                        --
│    │    │    │    └─Conv2d: 5-96                 [80, 64, 56, 56]          [80, 4, 56, 56]           256                       64,225,280
│    │    │    │    └─BatchNorm2d: 5-97            [80, 4, 56, 56]           [80, 4, 56, 56]           8                         640
│    │    │    │    └─Conv2d: 5-98                 [560, 4, 56, 8]           [560, 4, 56, 8]           12                        3,010,560
│    │    │    │    └─AvgPool2d: 5-99              [560, 4, 56, 8]           [560, 4, 28, 8]           --                        --
│    │    │    │    └─Sequential: 5-100            [560, 4, 28, 8]           [560, 4, 28, 8]           56                        6,025,600
│    │    │    │    └─Sequential: 5-101            [560, 4, 56, 8]           [560, 4, 56, 8]           56                        12,046,720
│    │    │    │    └─Sequential: 5-102            [560, 4, 56, 8]           [560, 64, 56, 8]          384                       64,296,960
│    │    │    │    └─Sigmoid: 5-103               [560, 64, 56, 8]          [560, 64, 56, 8]          --                        --
│    │    │    │    └─Conv2d: 5-104                [560, 4, 8, 56]           [560, 4, 8, 56]           12                        3,010,560
│    │    │    │    └─AvgPool2d: 5-105             [560, 4, 8, 56]           [560, 4, 8, 28]           --                        --
│    │    │    │    └─Sequential: 5-106            [560, 4, 8, 28]           [560, 4, 8, 28]           56                        6,025,600
│    │    │    │    └─Sequential: 5-107            [560, 4, 8, 56]           [560, 4, 8, 56]           56                        12,046,720
│    │    │    │    └─Sequential: 5-108            [560, 4, 8, 56]           [560, 64, 8, 56]          384                       64,296,960
│    │    │    │    └─Sigmoid: 5-109               [560, 64, 8, 56]          [560, 64, 8, 56]          --                        --
│    │    │    └─ISM_Module: 4-59                  [80, 64, 56, 56]          [80, 64, 56, 56]          --                        --
│    │    │    │    └─AdaptiveAvgPool2d: 5-110     [80, 64, 56, 56]          [80, 64, 1, 1]            --                        --
│    │    │    │    └─Conv1d: 5-111                [80, 1, 64]               [80, 1, 64]               3                         15,360
│    │    │    │    └─Sigmoid: 5-112               [80, 64, 1, 1]            [80, 64, 1, 1]            --                        --
│    │    │    └─ShiftModule: 4-60                 [80, 64, 56, 56]          [80, 64, 56, 56]          --                        --
│    │    │    │    └─Conv1d: 5-113                [31360, 64, 8]            [31360, 64, 8]            192                       48,168,960
│    │    │    └─Sequential: 4-61                  [80, 64, 56, 56]          [80, 64, 56, 56]          --                        --
│    │    │    │    └─Conv2d: 5-114                [80, 64, 56, 56]          [80, 64, 56, 56]          36,864                    9,248,440,320
│    │    │    │    └─BatchNorm2d: 5-115           [80, 64, 56, 56]          [80, 64, 56, 56]          128                       10,240
│    │    │    └─ReLU: 4-62                        [80, 64, 56, 56]          [80, 64, 56, 56]          --                        --
│    │    │    └─AvgPool2d: 4-63                   [80, 64, 56, 56]          [80, 64, 28, 28]          --                        --
│    │    │    └─AvgPool2d: 4-64                   [80, 64, 56, 56]          [80, 64, 28, 28]          --                        --
│    │    │    └─Conv2d: 4-65                      [80, 128, 28, 28]         [80, 512, 28, 28]         65,536                    4,110,417,920
│    │    │    └─BatchNorm2d: 4-66                 [80, 512, 28, 28]         [80, 512, 28, 28]         1,024                     81,920
│    │    │    └─Sequential: 4-67                  [80, 256, 56, 56]         [80, 512, 28, 28]         --                        --
│    │    │    │    └─AvgPool2d: 5-116             [80, 256, 56, 56]         [80, 256, 28, 28]         --                        --
│    │    │    │    └─Conv2d: 5-117                [80, 256, 28, 28]         [80, 512, 28, 28]         131,072                   8,220,835,840
│    │    │    │    └─BatchNorm2d: 5-118           [80, 512, 28, 28]         [80, 512, 28, 28]         1,024                     81,920
│    │    │    └─ReLU: 4-68                        [80, 512, 28, 28]         [80, 512, 28, 28]         --                        --
│    │    └─TSBM: 3-12                             [80, 512, 28, 28]         [80, 512, 28, 28]         98,816                    --
│    │    │    └─Conv2d: 4-69                      [80, 512, 28, 28]         [80, 64, 28, 28]          32,768                    2,055,208,960
│    │    │    └─BatchNorm2d: 4-70                 [80, 64, 28, 28]          [80, 64, 28, 28]          128                       10,240
│    │    │    └─ReLU: 4-71                        [80, 64, 28, 28]          [80, 64, 28, 28]          --                        --
│    │    │    └─Conv2d: 4-72                      [80, 512, 28, 28]         [80, 64, 28, 28]          32,768                    2,055,208,960
│    │    │    └─BatchNorm2d: 4-73                 [80, 64, 28, 28]          [80, 64, 28, 28]          128                       10,240
│    │    │    └─ReLU: 4-74                        [80, 64, 28, 28]          [80, 64, 28, 28]          --                        --
│    │    │    └─SSM_HiPPO: 4-75                   [80, 64, 28, 28]          [80, 64, 28, 28]          3,211,330                 --
│    │    │    │    └─Linear: 5-119                [10, 64]                  [10, 50176]               3,211,264                 32,112,640
│    │    │    │    └─Linear: 5-120                [10, 64]                  [10, 50176]               (recursive)               32,112,640
│    │    │    │    └─Linear: 5-121                [10, 64]                  [10, 50176]               (recursive)               32,112,640
│    │    │    │    └─Linear: 5-122                [10, 64]                  [10, 50176]               (recursive)               32,112,640
│    │    │    │    └─Linear: 5-123                [10, 64]                  [10, 50176]               (recursive)               32,112,640
│    │    │    │    └─Linear: 5-124                [10, 64]                  [10, 50176]               (recursive)               32,112,640
│    │    │    │    └─Linear: 5-125                [10, 64]                  [10, 50176]               (recursive)               32,112,640
│    │    │    │    └─Linear: 5-126                [10, 64]                  [10, 50176]               (recursive)               32,112,640
│    │    │    └─ReLU: 4-76                        [80, 64, 28, 28]          [80, 64, 28, 28]          --                        --
│    │    │    └─TIM_Module: 4-77                  [80, 64, 28, 28]          [80, 64, 28, 28]          --                        --
│    │    │    │    └─Conv2d: 5-127                [80, 64, 28, 28]          [80, 4, 28, 28]           256                       16,056,320
│    │    │    │    └─BatchNorm2d: 5-128           [80, 4, 28, 28]           [80, 4, 28, 28]           8                         640
│    │    │    │    └─Conv2d: 5-129                [280, 4, 28, 8]           [280, 4, 28, 8]           12                        752,640
│    │    │    │    └─AvgPool2d: 5-130             [280, 4, 28, 8]           [280, 4, 14, 8]           --                        --
│    │    │    │    └─Sequential: 5-131            [280, 4, 14, 8]           [280, 4, 14, 8]           56                        1,507,520
│    │    │    │    └─Sequential: 5-132            [280, 4, 28, 8]           [280, 4, 28, 8]           56                        3,012,800
│    │    │    │    └─Sequential: 5-133            [280, 4, 28, 8]           [280, 64, 28, 8]          384                       16,092,160
│    │    │    │    └─Sigmoid: 5-134               [280, 64, 28, 8]          [280, 64, 28, 8]          --                        --
│    │    │    │    └─Conv2d: 5-135                [280, 4, 8, 28]           [280, 4, 8, 28]           12                        752,640
│    │    │    │    └─AvgPool2d: 5-136             [280, 4, 8, 28]           [280, 4, 8, 14]           --                        --
│    │    │    │    └─Sequential: 5-137            [280, 4, 8, 14]           [280, 4, 8, 14]           56                        1,507,520
│    │    │    │    └─Sequential: 5-138            [280, 4, 8, 28]           [280, 4, 8, 28]           56                        3,012,800
│    │    │    │    └─Sequential: 5-139            [280, 4, 8, 28]           [280, 64, 8, 28]          384                       16,092,160
│    │    │    │    └─Sigmoid: 5-140               [280, 64, 8, 28]          [280, 64, 8, 28]          --                        --
│    │    │    └─ISM_Module: 4-78                  [80, 64, 28, 28]          [80, 64, 28, 28]          --                        --
│    │    │    │    └─AdaptiveAvgPool2d: 5-141     [80, 64, 28, 28]          [80, 64, 1, 1]            --                        --
│    │    │    │    └─Conv1d: 5-142                [80, 1, 64]               [80, 1, 64]               3                         15,360
│    │    │    │    └─Sigmoid: 5-143               [80, 64, 1, 1]            [80, 64, 1, 1]            --                        --
│    │    │    └─ShiftModule: 4-79                 [80, 64, 28, 28]          [80, 64, 28, 28]          --                        --
│    │    │    │    └─Conv1d: 5-144                [7840, 64, 8]             [7840, 64, 8]             192                       12,042,240
│    │    │    └─Sequential: 4-80                  [80, 64, 28, 28]          [80, 64, 28, 28]          --                        --
│    │    │    │    └─Conv2d: 5-145                [80, 64, 28, 28]          [80, 64, 28, 28]          36,864                    2,312,110,080
│    │    │    │    └─BatchNorm2d: 5-146           [80, 64, 28, 28]          [80, 64, 28, 28]          128                       10,240
│    │    │    └─ReLU: 4-81                        [80, 64, 28, 28]          [80, 64, 28, 28]          --                        --
│    │    │    └─Conv2d: 4-82                      [80, 128, 28, 28]         [80, 512, 28, 28]         65,536                    4,110,417,920
│    │    │    └─BatchNorm2d: 4-83                 [80, 512, 28, 28]         [80, 512, 28, 28]         1,024                     81,920
│    │    │    └─ReLU: 4-84                        [80, 512, 28, 28]         [80, 512, 28, 28]         --                        --
│    │    └─TSBM: 3-13                             [80, 512, 28, 28]         [80, 512, 28, 28]         98,816                    --
│    │    │    └─Conv2d: 4-85                      [80, 512, 28, 28]         [80, 64, 28, 28]          32,768                    2,055,208,960
│    │    │    └─BatchNorm2d: 4-86                 [80, 64, 28, 28]          [80, 64, 28, 28]          128                       10,240
│    │    │    └─ReLU: 4-87                        [80, 64, 28, 28]          [80, 64, 28, 28]          --                        --
│    │    │    └─Conv2d: 4-88                      [80, 512, 28, 28]         [80, 64, 28, 28]          32,768                    2,055,208,960
│    │    │    └─BatchNorm2d: 4-89                 [80, 64, 28, 28]          [80, 64, 28, 28]          128                       10,240
│    │    │    └─ReLU: 4-90                        [80, 64, 28, 28]          [80, 64, 28, 28]          --                        --
│    │    │    └─SSM_HiPPO: 4-91                   [80, 64, 28, 28]          [80, 64, 28, 28]          3,211,330                 --
│    │    │    │    └─Linear: 5-147                [10, 64]                  [10, 50176]               3,211,264                 32,112,640
│    │    │    │    └─Linear: 5-148                [10, 64]                  [10, 50176]               (recursive)               32,112,640
│    │    │    │    └─Linear: 5-149                [10, 64]                  [10, 50176]               (recursive)               32,112,640
│    │    │    │    └─Linear: 5-150                [10, 64]                  [10, 50176]               (recursive)               32,112,640
…
│    │    │    │    └─Linear: 5-179                [10, 64]                  [10, 50176]               (recursive)               32,112,640
│    │    │    │    └─Linear: 5-180                [10, 64]                  [10, 50176]               (recursive)               32,112,640
│    │    │    │    └─Linear: 5-181                [10, 64]                  [10, 50176]               (recursive)               32,112,640
│    │    │    │    └─Linear: 5-182                [10, 64]                  [10, 50176]               (recursive)               32,112,640
│    │    │    └─ReLU: 4-108                       [80, 64, 28, 28]          [80, 64, 28, 28]          --                        --
│    │    │    └─TIM_Module: 4-109                 [80, 64, 28, 28]          [80, 64, 28, 28]          --                        --
│    │    │    │    └─Conv2d: 5-183                [80, 64, 28, 28]          [80, 4, 28, 28]           256                       16,056,320
│    │    │    │    └─BatchNorm2d: 5-184           [80, 4, 28, 28]           [80, 4, 28, 28]           8                         640
│    │    │    │    └─Conv2d: 5-185                [280, 4, 28, 8]           [280, 4, 28, 8]           12                        752,640
│    │    │    │    └─AvgPool2d: 5-186             [280, 4, 28, 8]           [280, 4, 14, 8]           --                        --
│    │    │    │    └─Sequential: 5-187            [280, 4, 14, 8]           [280, 4, 14, 8]           56                        1,507,520
│    │    │    │    └─Sequential: 5-188            [280, 4, 28, 8]           [280, 4, 28, 8]           56                        3,012,800
│    │    │    │    └─Sequential: 5-189            [280, 4, 28, 8]           [280, 64, 28, 8]          384                       16,092,160
│    │    │    │    └─Sigmoid: 5-190               [280, 64, 28, 8]          [280, 64, 28, 8]          --                        --
│    │    │    │    └─Conv2d: 5-191                [280, 4, 8, 28]           [280, 4, 8, 28]           12                        752,640
│    │    │    │    └─AvgPool2d: 5-192             [280, 4, 8, 28]           [280, 4, 8, 14]           --                        --
│    │    │    │    └─Sequential: 5-193            [280, 4, 8, 14]           [280, 4, 8, 14]           56                        1,507,520
│    │    │    │    └─Sequential: 5-194            [280, 4, 8, 28]           [280, 4, 8, 28]           56                        3,012,800
│    │    │    │    └─Sequential: 5-195            [280, 4, 8, 28]           [280, 64, 8, 28]          384                       16,092,160
│    │    │    │    └─Sigmoid: 5-196               [280, 64, 8, 28]          [280, 64, 8, 28]          --                        --
│    │    │    └─ISM_Module: 4-110                 [80, 64, 28, 28]          [80, 64, 28, 28]          --                        --
│    │    │    │    └─AdaptiveAvgPool2d: 5-197     [80, 64, 28, 28]          [80, 64, 1, 1]            --                        --
│    │    │    │    └─Conv1d: 5-198                [80, 1, 64]               [80, 1, 64]               3                         15,360
│    │    │    │    └─Sigmoid: 5-199               [80, 64, 1, 1]            [80, 64, 1, 1]            --                        --
│    │    │    └─ShiftModule: 4-111                [80, 64, 28, 28]          [80, 64, 28, 28]          --                        --
│    │    │    │    └─Conv1d: 5-200                [7840, 64, 8]             [7840, 64, 8]             192                       12,042,240
│    │    │    └─Sequential: 4-112                 [80, 64, 28, 28]          [80, 64, 28, 28]          --                        --
│    │    │    │    └─Conv2d: 5-201                [80, 64, 28, 28]          [80, 64, 28, 28]          36,864                    2,312,110,080
│    │    │    │    └─BatchNorm2d: 5-202           [80, 64, 28, 28]          [80, 64, 28, 28]          128                       10,240
│    │    │    └─ReLU: 4-113                       [80, 64, 28, 28]          [80, 64, 28, 28]          --                        --
│    │    │    └─Conv2d: 4-114                     [80, 128, 28, 28]         [80, 512, 28, 28]         65,536                    4,110,417,920
│    │    │    └─BatchNorm2d: 4-115                [80, 512, 28, 28]         [80, 512, 28, 28]         1,024                     81,920
│    │    │    └─ReLU: 4-116                       [80, 512, 28, 28]         [80, 512, 28, 28]         --                        --
│    └─Sequential: 2-7                             [80, 512, 28, 28]         [80, 1024, 14, 14]        --                        --
│    │    └─TSBM: 3-15                             [80, 512, 28, 28]         [80, 1024, 14, 14]        394,240                   --
│    │    │    └─Conv2d: 4-117                     [80, 512, 28, 28]         [80, 128, 28, 28]         65,536                    4,110,417,920
│    │    │    └─BatchNorm2d: 4-118                [80, 128, 28, 28]         [80, 128, 28, 28]         256                       20,480
│    │    │    └─ReLU: 4-119                       [80, 128, 28, 28]         [80, 128, 28, 28]         --                        --
│    │    │    └─Conv2d: 4-120                     [80, 512, 28, 28]         [80, 128, 28, 28]         65,536                    4,110,417,920
│    │    │    └─BatchNorm2d: 4-121                [80, 128, 28, 28]         [80, 128, 28, 28]         256                       20,480
│    │    │    └─ReLU: 4-122                       [80, 128, 28, 28]         [80, 128, 28, 28]         --                        --
│    │    │    └─SSM_HiPPO: 4-123                  [80, 128, 28, 28]         [80, 128, 28, 28]         6,422,594                 --
│    │    │    │    └─Linear: 5-203                [10, 64]                  [10, 100352]              6,422,528                 64,225,280
│    │    │    │    └─Linear: 5-204                [10, 64]                  [10, 100352]              (recursive)               64,225,280
│    │    │    │    └─Linear: 5-205                [10, 64]                  [10, 100352]              (recursive)               64,225,280
│    │    │    │    └─Linear: 5-206                [10, 64]                  [10, 100352]              (recursive)               64,225,280
│    │    │    │    └─Linear: 5-207                [10, 64]                  [10, 100352]              (recursive)               64,225,280
│    │    │    │    └─Linear: 5-208                [10, 64]                  [10, 100352]              (recursive)               64,225,280
│    │    │    │    └─Linear: 5-209                [10, 64]                  [10, 100352]              (recursive)               64,225,280
│    │    │    │    └─Linear: 5-210                [10, 64]                  [10, 100352]              (recursive)               64,225,280
│    │    │    └─ReLU: 4-124                       [80, 128, 28, 28]         [80, 128, 28, 28]         --                        --
│    │    │    └─TIM_Module: 4-125                 [80, 128, 28, 28]         [80, 128, 28, 28]         --                        --
│    │    │    │    └─Conv2d: 5-211                [80, 128, 28, 28]         [80, 8, 28, 28]           1,024                     64,225,280
│    │    │    │    └─BatchNorm2d: 5-212           [80, 8, 28, 28]           [80, 8, 28, 28]           16                        1,280
│    │    │    │    └─Conv2d: 5-213                [280, 8, 28, 8]           [280, 8, 28, 8]           24                        1,505,280
│    │    │    │    └─AvgPool2d: 5-214             [280, 8, 28, 8]           [280, 8, 14, 8]           --                        --
│    │    │    │    └─Sequential: 5-215            [280, 8, 14, 8]           [280, 8, 14, 8]           208                       6,025,600
│    │    │    │    └─Sequential: 5-216            [280, 8, 28, 8]           [280, 8, 28, 8]           208                       12,046,720
│    │    │    │    └─Sequential: 5-217            [280, 8, 28, 8]           [280, 128, 28, 8]         1,280                     64,296,960
│    │    │    │    └─Sigmoid: 5-218               [280, 128, 28, 8]         [280, 128, 28, 8]         --                        --
│    │    │    │    └─Conv2d: 5-219                [280, 8, 8, 28]           [280, 8, 8, 28]           24                        1,505,280
│    │    │    │    └─AvgPool2d: 5-220             [280, 8, 8, 28]           [280, 8, 8, 14]           --                        --
│    │    │    │    └─Sequential: 5-221            [280, 8, 8, 14]           [280, 8, 8, 14]           208                       6,025,600
│    │    │    │    └─Sequential: 5-222            [280, 8, 8, 28]           [280, 8, 8, 28]           208                       12,046,720
│    │    │    │    └─Sequential: 5-223            [280, 8, 8, 28]           [280, 128, 8, 28]         1,280                     64,296,960
│    │    │    │    └─Sigmoid: 5-224               [280, 128, 8, 28]         [280, 128, 8, 28]         --                        --
│    │    │    └─ISM_Module: 4-126                 [80, 128, 28, 28]         [80, 128, 28, 28]         --                        --
│    │    │    │    └─AdaptiveAvgPool2d: 5-225     [80, 128, 28, 28]         [80, 128, 1, 1]           --                        --
│    │    │    │    └─Conv1d: 5-226                [80, 1, 128]              [80, 1, 128]              3                         30,720
│    │    │    │    └─Sigmoid: 5-227               [80, 128, 1, 1]           [80, 128, 1, 1]           --                        --
│    │    │    └─ShiftModule: 4-127                [80, 128, 28, 28]         [80, 128, 28, 28]         --                        --
│    │    │    │    └─Conv1d: 5-228                [7840, 128, 8]            [7840, 128, 8]            384                       24,084,480
│    │    │    └─Sequential: 4-128                 [80, 128, 28, 28]         [80, 128, 28, 28]         --                        --
│    │    │    │    └─Conv2d: 5-229                [80, 128, 28, 28]         [80, 128, 28, 28]         147,456                   9,248,440,320
│    │    │    │    └─BatchNorm2d: 5-230           [80, 128, 28, 28]         [80, 128, 28, 28]         256                       20,480
│    │    │    └─ReLU: 4-129                       [80, 128, 28, 28]         [80, 128, 28, 28]         --                        --
│    │    │    └─AvgPool2d: 4-130                  [80, 128, 28, 28]         [80, 128, 14, 14]         --                        --
│    │    │    └─AvgPool2d: 4-131                  [80, 128, 28, 28]         [80, 128, 14, 14]         --                        --
│    │    │    └─Conv2d: 4-132                     [80, 256, 14, 14]         [80, 1024, 14, 14]        262,144                   4,110,417,920
│    │    │    └─BatchNorm2d: 4-133                [80, 1024, 14, 14]        [80, 1024, 14, 14]        2,048                     163,840
│    │    │    └─Sequential: 4-134                 [80, 512, 28, 28]         [80, 1024, 14, 14]        --                        --
│    │    │    │    └─AvgPool2d: 5-231             [80, 512, 28, 28]         [80, 512, 14, 14]         --                        --
│    │    │    │    └─Conv2d: 5-232                [80, 512, 14, 14]         [80, 1024, 14, 14]        524,288                   8,220,835,840
│    │    │    │    └─BatchNorm2d: 5-233           [80, 1024, 14, 14]        [80, 1024, 14, 14]        2,048                     163,840
│    │    │    └─ReLU: 4-135                       [80, 1024, 14, 14]        [80, 1024, 14, 14]        --                        --
│    │    └─TSBM: 3-16                             [80, 1024, 14, 14]        [80, 1024, 14, 14]        394,240                   --
│    │    │    └─Conv2d: 4-136                     [80, 1024, 14, 14]        [80, 128, 14, 14]         131,072                   2,055,208,960
│    │    │    └─BatchNorm2d: 4-137                [80, 128, 14, 14]         [80, 128, 14, 14]         256                       20,480
│    │    │    └─ReLU: 4-138                       [80, 128, 14, 14]         [80, 128, 14, 14]         --                        --
│    │    │    └─Conv2d: 4-139                     [80, 1024, 14, 14]        [80, 128, 14, 14]         131,072                   2,055,208,960
│    │    │    └─BatchNorm2d: 4-140                [80, 128, 14, 14]         [80, 128, 14, 14]         256                       20,480
│    │    │    └─ReLU: 4-141                       [80, 128, 14, 14]         [80, 128, 14, 14]         --                        --
│    │    │    └─SSM_HiPPO: 4-142                  [80, 128, 14, 14]         [80, 128, 14, 14]         1,605,698                 --
│    │    │    │    └─Linear: 5-234                [10, 64]                  [10, 25088]               1,605,632                 16,056,320
│    │    │    │    └─Linear: 5-235                [10, 64]                  [10, 25088]               (recursive)               16,056,320
│    │    │    │    └─Linear: 5-236                [10, 64]                  [10, 25088]               (recursive)               16,056,320
│    │    │    │    └─Linear: 5-237                [10, 64]                  [10, 25088]               (recursive)               16,056,320
│    │    │    │    └─Linear: 5-238                [10, 64]                  [10, 25088]               (recursive)               16,056,320
│    │    │    │    └─Linear: 5-239                [10, 64]                  [10, 25088]               (recursive)               16,056,320
│    │    │    │    └─Linear: 5-240                [10, 64]                  [10, 25088]               (recursive)               16,056,320
│    │    │    │    └─Linear: 5-241                [10, 64]                  [10, 25088]               (recursive)               16,056,320
│    │    │    └─ReLU: 4-143                       [80, 128, 14, 14]         [80, 128, 14, 14]         --                        --
│    │    │    └─TIM_Module: 4-144                 [80, 128, 14, 14]         [80, 128, 14, 14]         --                        --
│    │    │    │    └─Conv2d: 5-242                [80, 128, 14, 14]         [80, 8, 14, 14]           1,024                     16,056,320
│    │    │    │    └─BatchNorm2d: 5-243           [80, 8, 14, 14]           [80, 8, 14, 14]           16                        1,280
│    │    │    │    └─Conv2d: 5-244                [140, 8, 14, 8]           [140, 8, 14, 8]           24                        376,320
│    │    │    │    └─AvgPool2d: 5-245             [140, 8, 14, 8]           [140, 8, 7, 8]            --                        --
│    │    │    │    └─Sequential: 5-246            [140, 8, 7, 8]            [140, 8, 7, 8]            208                       1,507,520
│    │    │    │    └─Sequential: 5-247            [140, 8, 14, 8]           [140, 8, 14, 8]           208                       3,012,800
│    │    │    │    └─Sequential: 5-248            [140, 8, 14, 8]           [140, 128, 14, 8]         1,280                     16,092,160
│    │    │    │    └─Sigmoid: 5-249               [140, 128, 14, 8]         [140, 128, 14, 8]         --                        --
│    │    │    │    └─Conv2d: 5-250                [140, 8, 8, 14]           [140, 8, 8, 14]           24                        376,320
│    │    │    │    └─AvgPool2d: 5-251             [140, 8, 8, 14]           [140, 8, 8, 7]            --                        --
│    │    │    │    └─Sequential: 5-252            [140, 8, 8, 7]            [140, 8, 8, 7]            208                       1,507,520
│    │    │    │    └─Sequential: 5-253            [140, 8, 8, 14]           [140, 8, 8, 14]           208                       3,012,800
│    │    │    │    └─Sequential: 5-254            [140, 8, 8, 14]           [140, 128, 8, 14]         1,280                     16,092,160
│    │    │    │    └─Sigmoid: 5-255               [140, 128, 8, 14]         [140, 128, 8, 14]         --                        --
│    │    │    └─ISM_Module: 4-145                 [80, 128, 14, 14]         [80, 128, 14, 14]         --                        --
│    │    │    │    └─AdaptiveAvgPool2d: 5-256     [80, 128, 14, 14]         [80, 128, 1, 1]           --                        --
│    │    │    │    └─Conv1d: 5-257                [80, 1, 128]              [80, 1, 128]              3                         30,720
│    │    │    │    └─Sigmoid: 5-258               [80, 128, 1, 1]           [80, 128, 1, 1]           --                        --
│    │    │    └─ShiftModule: 4-146                [80, 128, 14, 14]         [80, 128, 14, 14]         --                        --
│    │    │    │    └─Conv1d: 5-259                [1960, 128, 8]            [1960, 128, 8]            384                       6,021,120
│    │    │    └─Sequential: 4-147                 [80, 128, 14, 14]         [80, 128, 14, 14]         --                        --
│    │    │    │    └─Conv2d: 5-260                [80, 128, 14, 14]         [80, 128, 14, 14]         147,456                   2,312,110,080
│    │    │    │    └─BatchNorm2d: 5-261           [80, 128, 14, 14]         [80, 128, 14, 14]         256                       20,480
│    │    │    └─ReLU: 4-148                       [80, 128, 14, 14]         [80, 128, 14, 14]         --                        --
│    │    │    └─Conv2d: 4-149                     [80, 256, 14, 14]         [80, 1024, 14, 14]        262,144                   4,110,417,920
│    │    │    └─BatchNorm2d: 4-150                [80, 1024, 14, 14]        [80, 1024, 14, 14]        2,048                     163,840
│    │    │    └─ReLU: 4-151                       [80, 1024, 14, 14]        [80, 1024, 14, 14]        --                        --
│    │    └─TSBM: 3-17                             [80, 1024, 14, 14]        [80, 1024, 14, 14]        394,240                   --
│    │    │    └─Conv2d: 4-152                     [80, 1024, 14, 14]        [80, 128, 14, 14]         131,072                   2,055,208,960
│    │    │    └─BatchNorm2d: 4-153                [80, 128, 14, 14]         [80, 128, 14, 14]         256                       20,480
│    │    │    └─ReLU: 4-154                       [80, 128, 14, 14]         [80, 128, 14, 14]         --                        --
│    │    │    └─Conv2d: 4-155                     [80, 1024, 14, 14]        [80, 128, 14, 14]         131,072                   2,055,208,960
│    │    │    └─BatchNorm2d: 4-156                [80, 128, 14, 14]         [80, 128, 14, 14]         256                       20,480
│    │    │    └─ReLU: 4-157                       [80, 128, 14, 14]         [80, 128, 14, 14]         --                        --
│    │    │    └─SSM_HiPPO: 4-158                  [80, 128, 14, 14]         [80, 128, 14, 14]         1,605,698                 --
│    │    │    │    └─Linear: 5-262                [10, 64]                  [10, 25088]               1,605,632                 16,056,320
│    │    │    │    └─Linear: 5-263                [10, 64]                  [10, 25088]               (recursive)               16,056,320
│    │    │    │    └─Linear: 5-264                [10, 64]                  [10, 25088]               (recursive)               16,056,320
│    │    │    │    └─Linear: 5-265                [10, 64]                  [10, 25088]               (recursive)               16,056,320
…
│    │    │    │    └─Linear: 5-350                [10, 64]                  [10, 25088]               (recursive)               16,056,320
│    │    │    │    └─Linear: 5-351                [10, 64]                  [10, 25088]               (recursive)               16,056,320
│    │    │    │    └─Linear: 5-352                [10, 64]                  [10, 25088]               (recursive)               16,056,320
│    │    │    │    └─Linear: 5-353                [10, 64]                  [10, 25088]               (recursive)               16,056,320
│    │    │    └─ReLU: 4-207                       [80, 128, 14, 14]         [80, 128, 14, 14]         --                        --
│    │    │    └─TIM_Module: 4-208                 [80, 128, 14, 14]         [80, 128, 14, 14]         --                        --
│    │    │    │    └─Conv2d: 5-354                [80, 128, 14, 14]         [80, 8, 14, 14]           1,024                     16,056,320
│    │    │    │    └─BatchNorm2d: 5-355           [80, 8, 14, 14]           [80, 8, 14, 14]           16                        1,280
│    │    │    │    └─Conv2d: 5-356                [140, 8, 14, 8]           [140, 8, 14, 8]           24                        376,320
│    │    │    │    └─AvgPool2d: 5-357             [140, 8, 14, 8]           [140, 8, 7, 8]            --                        --
│    │    │    │    └─Sequential: 5-358            [140, 8, 7, 8]            [140, 8, 7, 8]            208                       1,507,520
│    │    │    │    └─Sequential: 5-359            [140, 8, 14, 8]           [140, 8, 14, 8]           208                       3,012,800
│    │    │    │    └─Sequential: 5-360            [140, 8, 14, 8]           [140, 128, 14, 8]         1,280                     16,092,160
│    │    │    │    └─Sigmoid: 5-361               [140, 128, 14, 8]         [140, 128, 14, 8]         --                        --
│    │    │    │    └─Conv2d: 5-362                [140, 8, 8, 14]           [140, 8, 8, 14]           24                        376,320
│    │    │    │    └─AvgPool2d: 5-363             [140, 8, 8, 14]           [140, 8, 8, 7]            --                        --
│    │    │    │    └─Sequential: 5-364            [140, 8, 8, 7]            [140, 8, 8, 7]            208                       1,507,520
│    │    │    │    └─Sequential: 5-365            [140, 8, 8, 14]           [140, 8, 8, 14]           208                       3,012,800
│    │    │    │    └─Sequential: 5-366            [140, 8, 8, 14]           [140, 128, 8, 14]         1,280                     16,092,160
│    │    │    │    └─Sigmoid: 5-367               [140, 128, 8, 14]         [140, 128, 8, 14]         --                        --
│    │    │    └─ISM_Module: 4-209                 [80, 128, 14, 14]         [80, 128, 14, 14]         --                        --
│    │    │    │    └─AdaptiveAvgPool2d: 5-368     [80, 128, 14, 14]         [80, 128, 1, 1]           --                        --
│    │    │    │    └─Conv1d: 5-369                [80, 1, 128]              [80, 1, 128]              3                         30,720
│    │    │    │    └─Sigmoid: 5-370               [80, 128, 1, 1]           [80, 128, 1, 1]           --                        --
│    │    │    └─ShiftModule: 4-210                [80, 128, 14, 14]         [80, 128, 14, 14]         --                        --
│    │    │    │    └─Conv1d: 5-371                [1960, 128, 8]            [1960, 128, 8]            384                       6,021,120
│    │    │    └─Sequential: 4-211                 [80, 128, 14, 14]         [80, 128, 14, 14]         --                        --
│    │    │    │    └─Conv2d: 5-372                [80, 128, 14, 14]         [80, 128, 14, 14]         147,456                   2,312,110,080
│    │    │    │    └─BatchNorm2d: 5-373           [80, 128, 14, 14]         [80, 128, 14, 14]         256                       20,480
│    │    │    └─ReLU: 4-212                       [80, 128, 14, 14]         [80, 128, 14, 14]         --                        --
│    │    │    └─Conv2d: 4-213                     [80, 256, 14, 14]         [80, 1024, 14, 14]        262,144                   4,110,417,920
│    │    │    └─BatchNorm2d: 4-214                [80, 1024, 14, 14]        [80, 1024, 14, 14]        2,048                     163,840
│    │    │    └─ReLU: 4-215                       [80, 1024, 14, 14]        [80, 1024, 14, 14]        --                        --
│    └─Sequential: 2-8                             [80, 1024, 14, 14]        [80, 2048, 7, 7]          --                        --
│    │    └─TSBM: 3-21                             [80, 1024, 14, 14]        [80, 2048, 7, 7]          1,574,912                 --
│    │    │    └─Conv2d: 4-216                     [80, 1024, 14, 14]        [80, 256, 14, 14]         262,144                   4,110,417,920
│    │    │    └─BatchNorm2d: 4-217                [80, 256, 14, 14]         [80, 256, 14, 14]         512                       40,960
│    │    │    └─ReLU: 4-218                       [80, 256, 14, 14]         [80, 256, 14, 14]         --                        --
│    │    │    └─Conv2d: 4-219                     [80, 1024, 14, 14]        [80, 256, 14, 14]         262,144                   4,110,417,920
│    │    │    └─BatchNorm2d: 4-220                [80, 256, 14, 14]         [80, 256, 14, 14]         512                       40,960
│    │    │    └─ReLU: 4-221                       [80, 256, 14, 14]         [80, 256, 14, 14]         --                        --
│    │    │    └─SSM_HiPPO: 4-222                  [80, 256, 14, 14]         [80, 256, 14, 14]         3,211,330                 --
│    │    │    │    └─Linear: 5-374                [10, 64]                  [10, 50176]               3,211,264                 32,112,640
│    │    │    │    └─Linear: 5-375                [10, 64]                  [10, 50176]               (recursive)               32,112,640
│    │    │    │    └─Linear: 5-376                [10, 64]                  [10, 50176]               (recursive)               32,112,640
│    │    │    │    └─Linear: 5-377                [10, 64]                  [10, 50176]               (recursive)               32,112,640
│    │    │    │    └─Linear: 5-378                [10, 64]                  [10, 50176]               (recursive)               32,112,640
│    │    │    │    └─Linear: 5-379                [10, 64]                  [10, 50176]               (recursive)               32,112,640
│    │    │    │    └─Linear: 5-380                [10, 64]                  [10, 50176]               (recursive)               32,112,640
│    │    │    │    └─Linear: 5-381                [10, 64]                  [10, 50176]               (recursive)               32,112,640
│    │    │    └─ReLU: 4-223                       [80, 256, 14, 14]         [80, 256, 14, 14]         --                        --
│    │    │    └─TIM_Module: 4-224                 [80, 256, 14, 14]         [80, 256, 14, 14]         --                        --
│    │    │    │    └─Conv2d: 5-382                [80, 256, 14, 14]         [80, 16, 14, 14]          4,096                     64,225,280
│    │    │    │    └─BatchNorm2d: 5-383           [80, 16, 14, 14]          [80, 16, 14, 14]          32                        2,560
│    │    │    │    └─Conv2d: 5-384                [140, 16, 14, 8]          [140, 16, 14, 8]          48                        752,640
│    │    │    │    └─AvgPool2d: 5-385             [140, 16, 14, 8]          [140, 16, 7, 8]           --                        --
│    │    │    │    └─Sequential: 5-386            [140, 16, 7, 8]           [140, 16, 7, 8]           800                       6,025,600
│    │    │    │    └─Sequential: 5-387            [140, 16, 14, 8]          [140, 16, 14, 8]          800                       12,046,720
│    │    │    │    └─Sequential: 5-388            [140, 16, 14, 8]          [140, 256, 14, 8]         4,608                     64,296,960
│    │    │    │    └─Sigmoid: 5-389               [140, 256, 14, 8]         [140, 256, 14, 8]         --                        --
│    │    │    │    └─Conv2d: 5-390                [140, 16, 8, 14]          [140, 16, 8, 14]          48                        752,640
│    │    │    │    └─AvgPool2d: 5-391             [140, 16, 8, 14]          [140, 16, 8, 7]           --                        --
│    │    │    │    └─Sequential: 5-392            [140, 16, 8, 7]           [140, 16, 8, 7]           800                       6,025,600
│    │    │    │    └─Sequential: 5-393            [140, 16, 8, 14]          [140, 16, 8, 14]          800                       12,046,720
│    │    │    │    └─Sequential: 5-394            [140, 16, 8, 14]          [140, 256, 8, 14]         4,608                     64,296,960
│    │    │    │    └─Sigmoid: 5-395               [140, 256, 8, 14]         [140, 256, 8, 14]         --                        --
│    │    │    └─ISM_Module: 4-225                 [80, 256, 14, 14]         [80, 256, 14, 14]         --                        --
│    │    │    │    └─AdaptiveAvgPool2d: 5-396     [80, 256, 14, 14]         [80, 256, 1, 1]           --                        --
│    │    │    │    └─Conv1d: 5-397                [80, 1, 256]              [80, 1, 256]              3                         61,440
│    │    │    │    └─Sigmoid: 5-398               [80, 256, 1, 1]           [80, 256, 1, 1]           --                        --
│    │    │    └─ShiftModule: 4-226                [80, 256, 14, 14]         [80, 256, 14, 14]         --                        --
│    │    │    │    └─Conv1d: 5-399                [1960, 256, 8]            [1960, 256, 8]            768                       12,042,240
│    │    │    └─Sequential: 4-227                 [80, 256, 14, 14]         [80, 256, 14, 14]         --                        --
│    │    │    │    └─Conv2d: 5-400                [80, 256, 14, 14]         [80, 256, 14, 14]         589,824                   9,248,440,320
│    │    │    │    └─BatchNorm2d: 5-401           [80, 256, 14, 14]         [80, 256, 14, 14]         512                       40,960
│    │    │    └─ReLU: 4-228                       [80, 256, 14, 14]         [80, 256, 14, 14]         --                        --
│    │    │    └─AvgPool2d: 4-229                  [80, 256, 14, 14]         [80, 256, 7, 7]           --                        --
│    │    │    └─AvgPool2d: 4-230                  [80, 256, 14, 14]         [80, 256, 7, 7]           --                        --
│    │    │    └─Conv2d: 4-231                     [80, 512, 7, 7]           [80, 2048, 7, 7]          1,048,576                 4,110,417,920
│    │    │    └─BatchNorm2d: 4-232                [80, 2048, 7, 7]          [80, 2048, 7, 7]          4,096                     327,680
│    │    │    └─Sequential: 4-233                 [80, 1024, 14, 14]        [80, 2048, 7, 7]          --                        --
│    │    │    │    └─AvgPool2d: 5-402             [80, 1024, 14, 14]        [80, 1024, 7, 7]          --                        --
│    │    │    │    └─Conv2d: 5-403                [80, 1024, 7, 7]          [80, 2048, 7, 7]          2,097,152                 8,220,835,840
│    │    │    │    └─BatchNorm2d: 5-404           [80, 2048, 7, 7]          [80, 2048, 7, 7]          4,096                     327,680
│    │    │    └─ReLU: 4-234                       [80, 2048, 7, 7]          [80, 2048, 7, 7]          --                        --
│    │    └─TSBM: 3-22                             [80, 2048, 7, 7]          [80, 2048, 7, 7]          1,574,912                 --
│    │    │    └─Conv2d: 4-235                     [80, 2048, 7, 7]          [80, 256, 7, 7]           524,288                   2,055,208,960
│    │    │    └─BatchNorm2d: 4-236                [80, 256, 7, 7]           [80, 256, 7, 7]           512                       40,960
│    │    │    └─ReLU: 4-237                       [80, 256, 7, 7]           [80, 256, 7, 7]           --                        --
│    │    │    └─Conv2d: 4-238                     [80, 2048, 7, 7]          [80, 256, 7, 7]           524,288                   2,055,208,960
│    │    │    └─BatchNorm2d: 4-239                [80, 256, 7, 7]           [80, 256, 7, 7]           512                       40,960
│    │    │    └─ReLU: 4-240                       [80, 256, 7, 7]           [80, 256, 7, 7]           --                        --
│    │    │    └─SSM_HiPPO: 4-241                  [80, 256, 7, 7]           [80, 256, 7, 7]           802,882                   --
│    │    │    │    └─Linear: 5-405                [10, 64]                  [10, 12544]               802,816                   8,028,160
│    │    │    │    └─Linear: 5-406                [10, 64]                  [10, 12544]               (recursive)               8,028,160
│    │    │    │    └─Linear: 5-407                [10, 64]                  [10, 12544]               (recursive)               8,028,160
│    │    │    │    └─Linear: 5-408                [10, 64]                  [10, 12544]               (recursive)               8,028,160
│    │    │    │    └─Linear: 5-409                [10, 64]                  [10, 12544]               (recursive)               8,028,160
│    │    │    │    └─Linear: 5-410                [10, 64]                  [10, 12544]               (recursive)               8,028,160
│    │    │    │    └─Linear: 5-411                [10, 64]                  [10, 12544]               (recursive)               8,028,160
│    │    │    │    └─Linear: 5-412                [10, 64]                  [10, 12544]               (recursive)               8,028,160
│    │    │    └─ReLU: 4-242                       [80, 256, 7, 7]           [80, 256, 7, 7]           --                        --
│    │    │    └─TIM_Module: 4-243                 [80, 256, 7, 7]           [80, 256, 7, 7]           --                        --
│    │    │    │    └─Conv2d: 5-413                [80, 256, 7, 7]           [80, 16, 7, 7]            4,096                     16,056,320
│    │    │    │    └─BatchNorm2d: 5-414           [80, 16, 7, 7]            [80, 16, 7, 7]            32                        2,560
│    │    │    │    └─Conv2d: 5-415                [70, 16, 7, 8]            [70, 16, 7, 8]            48                        188,160
│    │    │    │    └─AvgPool2d: 5-416             [70, 16, 7, 8]            [70, 16, 3, 8]            --                        --
│    │    │    │    └─Sequential: 5-417            [70, 16, 3, 8]            [70, 16, 3, 8]            800                       1,292,480
│    │    │    │    └─Sequential: 5-418            [70, 16, 7, 8]            [70, 16, 7, 8]            800                       3,012,800
│    │    │    │    └─Sequential: 5-419            [70, 16, 7, 8]            [70, 256, 7, 8]           4,608                     16,092,160
│    │    │    │    └─Sigmoid: 5-420               [70, 256, 7, 8]           [70, 256, 7, 8]           --                        --
│    │    │    │    └─Conv2d: 5-421                [70, 16, 8, 7]            [70, 16, 8, 7]            48                        188,160
│    │    │    │    └─AvgPool2d: 5-422             [70, 16, 8, 7]            [70, 16, 8, 3]            --                        --
│    │    │    │    └─Sequential: 5-423            [70, 16, 8, 3]            [70, 16, 8, 3]            800                       1,292,480
│    │    │    │    └─Sequential: 5-424            [70, 16, 8, 7]            [70, 16, 8, 7]            800                       3,012,800
│    │    │    │    └─Sequential: 5-425            [70, 16, 8, 7]            [70, 256, 8, 7]           4,608                     16,092,160
│    │    │    │    └─Sigmoid: 5-426               [70, 256, 8, 7]           [70, 256, 8, 7]           --                        --
│    │    │    └─ISM_Module: 4-244                 [80, 256, 7, 7]           [80, 256, 7, 7]           --                        --
│    │    │    │    └─AdaptiveAvgPool2d: 5-427     [80, 256, 7, 7]           [80, 256, 1, 1]           --                        --
│    │    │    │    └─Conv1d: 5-428                [80, 1, 256]              [80, 1, 256]              3                         61,440
│    │    │    │    └─Sigmoid: 5-429               [80, 256, 1, 1]           [80, 256, 1, 1]           --                        --
│    │    │    └─ShiftModule: 4-245                [80, 256, 7, 7]           [80, 256, 7, 7]           --                        --
│    │    │    │    └─Conv1d: 5-430                [490, 256, 8]             [490, 256, 8]             768                       3,010,560
│    │    │    └─Sequential: 4-246                 [80, 256, 7, 7]           [80, 256, 7, 7]           --                        --
│    │    │    │    └─Conv2d: 5-431                [80, 256, 7, 7]           [80, 256, 7, 7]           589,824                   2,312,110,080
│    │    │    │    └─BatchNorm2d: 5-432           [80, 256, 7, 7]           [80, 256, 7, 7]           512                       40,960
│    │    │    └─ReLU: 4-247                       [80, 256, 7, 7]           [80, 256, 7, 7]           --                        --
│    │    │    └─Conv2d: 4-248                     [80, 512, 7, 7]           [80, 2048, 7, 7]          1,048,576                 4,110,417,920
│    │    │    └─BatchNorm2d: 4-249                [80, 2048, 7, 7]          [80, 2048, 7, 7]          4,096                     327,680
│    │    │    └─ReLU: 4-250                       [80, 2048, 7, 7]          [80, 2048, 7, 7]          --                        --
│    │    └─TSBM: 3-23                             [80, 2048, 7, 7]          [80, 2048, 7, 7]          1,574,912                 --
│    │    │    └─Conv2d: 4-251                     [80, 2048, 7, 7]          [80, 256, 7, 7]           524,288                   2,055,208,960
│    │    │    └─BatchNorm2d: 4-252                [80, 256, 7, 7]           [80, 256, 7, 7]           512                       40,960
│    │    │    └─ReLU: 4-253                       [80, 256, 7, 7]           [80, 256, 7, 7]           --                        --
│    │    │    └─Conv2d: 4-254                     [80, 2048, 7, 7]          [80, 256, 7, 7]           524,288                   2,055,208,960
│    │    │    └─BatchNorm2d: 4-255                [80, 256, 7, 7]           [80, 256, 7, 7]           512                       40,960
│    │    │    └─ReLU: 4-256                       [80, 256, 7, 7]           [80, 256, 7, 7]           --                        --
│    │    │    └─SSM_HiPPO: 4-257                  [80, 256, 7, 7]           [80, 256, 7, 7]           802,882                   --
│    │    │    │    └─Linear: 5-433                [10, 64]                  [10, 12544]               802,816                   8,028,160
│    │    │    │    └─Linear: 5-434                [10, 64]                  [10, 12544]               (recursive)               8,028,160
│    │    │    │    └─Linear: 5-435                [10, 64]                  [10, 12544]               (recursive)               8,028,160
│    │    │    │    └─Linear: 5-436                [10, 64]                  [10, 12544]               (recursive)               8,028,160
│    │    │    │    └─Linear: 5-437                [10, 64]                  [10, 12544]               (recursive)               8,028,160
│    │    │    │    └─Linear: 5-438                [10, 64]                  [10, 12544]               (recursive)               8,028,160
│    │    │    │    └─Linear: 5-439                [10, 64]                  [10, 12544]               (recursive)               8,028,160
│    │    │    │    └─Linear: 5-440                [10, 64]                  [10, 12544]               (recursive)               8,028,160
│    │    │    └─ReLU: 4-258                       [80, 256, 7, 7]           [80, 256, 7, 7]           --                        --
│    │    │    └─TIM_Module: 4-259                 [80, 256, 7, 7]           [80, 256, 7, 7]           --                        --
│    │    │    │    └─Conv2d: 5-441                [80, 256, 7, 7]           [80, 16, 7, 7]            4,096                     16,056,320
│    │    │    │    └─BatchNorm2d: 5-442           [80, 16, 7, 7]            [80, 16, 7, 7]            32                        2,560
│    │    │    │    └─Conv2d: 5-443                [70, 16, 7, 8]            [70, 16, 7, 8]            48                        188,160
│    │    │    │    └─AvgPool2d: 5-444             [70, 16, 7, 8]            [70, 16, 3, 8]            --                        --
│    │    │    │    └─Sequential: 5-445            [70, 16, 3, 8]            [70, 16, 3, 8]            800                       1,292,480
│    │    │    │    └─Sequential: 5-446            [70, 16, 7, 8]            [70, 16, 7, 8]            800                       3,012,800
│    │    │    │    └─Sequential: 5-447            [70, 16, 7, 8]            [70, 256, 7, 8]           4,608                     16,092,160
│    │    │    │    └─Sigmoid: 5-448               [70, 256, 7, 8]           [70, 256, 7, 8]           --                        --
│    │    │    │    └─Conv2d: 5-449                [70, 16, 8, 7]            [70, 16, 8, 7]            48                        188,160
│    │    │    │    └─AvgPool2d: 5-450             [70, 16, 8, 7]            [70, 16, 8, 3]            --                        --
│    │    │    │    └─Sequential: 5-451            [70, 16, 8, 3]            [70, 16, 8, 3]            800                       1,292,480
│    │    │    │    └─Sequential: 5-452            [70, 16, 8, 7]            [70, 16, 8, 7]            800                       3,012,800
│    │    │    │    └─Sequential: 5-453            [70, 16, 8, 7]            [70, 256, 8, 7]           4,608                     16,092,160
│    │    │    │    └─Sigmoid: 5-454               [70, 256, 8, 7]           [70, 256, 8, 7]           --                        --
│    │    │    └─ISM_Module: 4-260                 [80, 256, 7, 7]           [80, 256, 7, 7]           --                        --
│    │    │    │    └─AdaptiveAvgPool2d: 5-455     [80, 256, 7, 7]           [80, 256, 1, 1]           --                        --
│    │    │    │    └─Conv1d: 5-456                [80, 1, 256]              [80, 1, 256]              3                         61,440
│    │    │    │    └─Sigmoid: 5-457               [80, 256, 1, 1]           [80, 256, 1, 1]           --                        --
│    │    │    └─ShiftModule: 4-261                [80, 256, 7, 7]           [80, 256, 7, 7]           --                        --
│    │    │    │    └─Conv1d: 5-458                [490, 256, 8]             [490, 256, 8]             768                       3,010,560
│    │    │    └─Sequential: 4-262                 [80, 256, 7, 7]           [80, 256, 7, 7]           --                        --
│    │    │    │    └─Conv2d: 5-459                [80, 256, 7, 7]           [80, 256, 7, 7]           589,824                   2,312,110,080
│    │    │    │    └─BatchNorm2d: 5-460           [80, 256, 7, 7]           [80, 256, 7, 7]           512                       40,960
│    │    │    └─ReLU: 4-263                       [80, 256, 7, 7]           [80, 256, 7, 7]           --                        --
│    │    │    └─Conv2d: 4-264                     [80, 512, 7, 7]           [80, 2048, 7, 7]          1,048,576                 4,110,417,920
│    │    │    └─BatchNorm2d: 4-265                [80, 2048, 7, 7]          [80, 2048, 7, 7]          4,096                     327,680
│    │    │    └─ReLU: 4-266                       [80, 2048, 7, 7]          [80, 2048, 7, 7]          --                        --
│    └─AdaptiveAvgPool2d: 2-9                      [80, 2048, 7, 7]          [80, 2048, 1, 1]          --                        --
│    └─Linear: 2-10                                [80, 2048]                [80, 2]                   4,098                     327,840
├─VisionTransformer: 1-2                           [10, 224, 224, 3]         [10, 2]                   --                        --
│    └─PatchEmbed: 2-11                            [10, 224, 224, 3]         [10, 196, 1024]           --                        --
│    │    └─Conv2d: 3-24                           [10, 3, 224, 224]         [10, 1024, 14, 14]        787,456                   1,543,413,760
│    └─ConcatClassTokenAddPosEmbed: 2-12           [10, 196, 1024]           [10, 197, 1024]           202,752                   --
│    └─Dropout: 2-13                               [10, 197, 1024]           [10, 197, 1024]           --                        --
│    └─ModuleList: 2-14                            --                        --                        --                        --
│    │    └─Block: 3-25                            [10, 197, 1024]           [10, 197, 1024]           --                        --
│    │    │    └─LayerNorm: 4-267                  [10, 197, 1024]           [10, 197, 1024]           2,048                     20,480
│    │    │    └─Attention: 4-268                  [10, 197, 1024]           [10, 197, 1024]           --                        --
│    │    │    │    └─Linear: 5-461                [10, 197, 1024]           [10, 197, 3072]           3,148,800                 31,488,000
│    │    │    │    └─Dropout: 5-462               [10, 16, 197, 197]        [10, 16, 197, 197]        --                        --
│    │    │    │    └─Linear: 5-463                [10, 197, 1024]           [10, 197, 1024]           1,049,600                 10,496,000
│    │    │    │    └─Dropout: 5-464               [10, 197, 1024]           [10, 197, 1024]           --                        --
│    │    │    └─Identity: 4-269                   [10, 197, 1024]           [10, 197, 1024]           --                        --
│    │    │    └─LayerNorm: 4-270                  [10, 197, 1024]           [10, 197, 1024]           2,048                     20,480
│    │    │    └─MLP: 4-271                        [10, 197, 1024]           [10, 197, 1024]           --                        --
│    │    │    │    └─Linear: 5-465                [10, 197, 1024]           [10, 197, 4096]           4,198,400                 41,984,000
│    │    │    │    └─GELU: 5-466                  [10, 197, 4096]           [10, 197, 4096]           --                        --
│    │    │    │    └─Dropout: 5-467               [10, 197, 4096]           [10, 197, 4096]           --                        --
│    │    │    │    └─Linear: 5-468                [10, 197, 4096]           [10, 197, 1024]           4,195,328                 41,953,280
│    │    │    │    └─Dropout: 5-469               [10, 197, 1024]           [10, 197, 1024]           --                        --
│    │    │    └─Identity: 4-272                   [10, 197, 1024]           [10, 197, 1024]           --                        --
│    │    └─Block: 3-26                            [10, 197, 1024]           [10, 197, 1024]           --                        --
│    │    │    └─LayerNorm: 4-273                  [10, 197, 1024]           [10, 197, 1024]           2,048                     20,480
│    │    │    └─Attention: 4-274                  [10, 197, 1024]           [10, 197, 1024]           --                        --
│    │    │    │    └─Linear: 5-470                [10, 197, 1024]           [10, 197, 3072]           3,148,800                 31,488,000
│    │    │    │    └─Dropout: 5-471               [10, 16, 197, 197]        [10, 16, 197, 197]        --                        --
│    │    │    │    └─Linear: 5-472                [10, 197, 1024]           [10, 197, 1024]           1,049,600                 10,496,000
│    │    │    │    └─Dropout: 5-473               [10, 197, 1024]           [10, 197, 1024]           --                        --
│    │    │    └─Identity: 4-275                   [10, 197, 1024]           [10, 197, 1024]           --                        --
│    │    │    └─LayerNorm: 4-276                  [10, 197, 1024]           [10, 197, 1024]           2,048                     20,480
│    │    │    └─MLP: 4-277                        [10, 197, 1024]           [10, 197, 1024]           --                        --
│    │    │    │    └─Linear: 5-474                [10, 197, 1024]           [10, 197, 4096]           4,198,400                 41,984,000
│    │    │    │    └─GELU: 5-475                  [10, 197, 4096]           [10, 197, 4096]           --                        --
│    │    │    │    └─Dropout: 5-476               [10, 197, 4096]           [10, 197, 4096]           --                        --
│    │    │    │    └─Linear: 5-477                [10, 197, 4096]           [10, 197, 1024]           4,195,328                 41,953,280
│    │    │    │    └─Dropout: 5-478               [10, 197, 1024]           [10, 197, 1024]           --                        --
│    │    │    └─Identity: 4-278                   [10, 197, 1024]           [10, 197, 1024]           --                        --
│    │    └─Block: 3-27                            [10, 197, 1024]           [10, 197, 1024]           --                        --
│    │    │    └─LayerNorm: 4-279                  [10, 197, 1024]           [10, 197, 1024]           2,048                     20,480
│    │    │    └─Attention: 4-280                  [10, 197, 1024]           [10, 197, 1024]           --                        --
│    │    │    │    └─Linear: 5-479                [10, 197, 1024]           [10, 197, 3072]           3,148,800                 31,488,000
│    │    │    │    └─Dropout: 5-480               [10, 16, 197, 197]        [10, 16, 197, 197]        --                        --
│    │    │    │    └─Linear: 5-481                [10, 197, 1024]           [10, 197, 1024]           1,049,600                 10,496,000
│    │    │    │    └─Dropout: 5-482               [10, 197, 1024]           [10, 197, 1024]           --                        --
│    │    │    └─Identity: 4-281                   [10, 197, 1024]           [10, 197, 1024]           --                        --
│    │    │    └─LayerNorm: 4-282                  [10, 197, 1024]           [10, 197, 1024]           2,048                     20,480
│    │    │    └─MLP: 4-283                        [10, 197, 1024]           [10, 197, 1024]           --                        --
│    │    │    │    └─Linear: 5-483                [10, 197, 1024]           [10, 197, 4096]           4,198,400                 41,984,000
│    │    │    │    └─GELU: 5-484                  [10, 197, 4096]           [10, 197, 4096]           --                        --
│    │    │    │    └─Dropout: 5-485               [10, 197, 4096]           [10, 197, 4096]           --                        --
│    │    │    │    └─Linear: 5-486                [10, 197, 4096]           [10, 197, 1024]           4,195,328                 41,953,280
│    │    │    │    └─Dropout: 5-487               [10, 197, 1024]           [10, 197, 1024]           --                        --
│    │    │    └─Identity: 4-284                   [10, 197, 1024]           [10, 197, 1024]           --                        --
│    │    └─Block: 3-28                            [10, 197, 1024]           [10, 197, 1024]           --                        --
│    │    │    └─LayerNorm: 4-285                  [10, 197, 1024]           [10, 197, 1024]           2,048                     20,480
│    │    │    └─Attention: 4-286                  [10, 197, 1024]           [10, 197, 1024]           --                        --
│    │    │    │    └─Linear: 5-488                [10, 197, 1024]           [10, 197, 3072]           3,148,800                 31,488,000
│    │    │    │    └─Dropout: 5-489               [10, 16, 197, 197]        [10, 16, 197, 197]        --                        --
│    │    │    │    └─Linear: 5-490                [10, 197, 1024]           [10, 197, 1024]           1,049,600                 10,496,000
│    │    │    │    └─Dropout: 5-491               [10, 197, 1024]           [10, 197, 1024]           --                        --
│    │    │    └─Identity: 4-287                   [10, 197, 1024]           [10, 197, 1024]           --                        --
│    │    │    └─LayerNorm: 4-288                  [10, 197, 1024]           [10, 197, 1024]           2,048                     20,480
│    │    │    └─MLP: 4-289                        [10, 197, 1024]           [10, 197, 1024]           --                        --
│    │    │    │    └─Linear: 5-492                [10, 197, 1024]           [10, 197, 4096]           4,198,400                 41,984,000
│    │    │    │    └─GELU: 5-493                  [10, 197, 4096]           [10, 197, 4096]           --                        --
│    │    │    │    └─Dropout: 5-494               [10, 197, 4096]           [10, 197, 4096]           --                        --
│    │    │    │    └─Linear: 5-495                [10, 197, 4096]           [10, 197, 1024]           4,195,328                 41,953,280
│    │    │    │    └─Dropout: 5-496               [10, 197, 1024]           [10, 197, 1024]           --                        --
│    │    │    └─Identity: 4-290                   [10, 197, 1024]           [10, 197, 1024]           --                        --
│    │    └─Block: 3-29                            [10, 197, 1024]           [10, 197, 1024]           --                        --
│    │    │    └─LayerNorm: 4-291                  [10, 197, 1024]           [10, 197, 1024]           2,048                     20,480
│    │    │    └─Attention: 4-292                  [10, 197, 1024]           [10, 197, 1024]           --                        --
│    │    │    │    └─Linear: 5-497                [10, 197, 1024]           [10, 197, 3072]           3,148,800                 31,488,000
│    │    │    │    └─Dropout: 5-498               [10, 16, 197, 197]        [10, 16, 197, 197]        --                        --
│    │    │    │    └─Linear: 5-499                [10, 197, 1024]           [10, 197, 1024]           1,049,600                 10,496,000
│    │    │    │    └─Dropout: 5-500               [10, 197, 1024]           [10, 197, 1024]           --                        --
│    │    │    └─Identity: 4-293                   [10, 197, 1024]           [10, 197, 1024]           --                        --
│    │    │    └─LayerNorm: 4-294                  [10, 197, 1024]           [10, 197, 1024]           2,048                     20,480
│    │    │    └─MLP: 4-295                        [10, 197, 1024]           [10, 197, 1024]           --                        --
│    │    │    │    └─Linear: 5-501                [10, 197, 1024]           [10, 197, 4096]           4,198,400                 41,984,000
│    │    │    │    └─GELU: 5-502                  [10, 197, 4096]           [10, 197, 4096]           --                        --
│    │    │    │    └─Dropout: 5-503               [10, 197, 4096]           [10, 197, 4096]           --                        --
│    │    │    │    └─Linear: 5-504                [10, 197, 4096]           [10, 197, 1024]           4,195,328                 41,953,280
│    │    │    │    └─Dropout: 5-505               [10, 197, 1024]           [10, 197, 1024]           --                        --
│    │    │    └─Identity: 4-296                   [10, 197, 1024]           [10, 197, 1024]           --                        --
│    │    └─Block: 3-30                            [10, 197, 1024]           [10, 197, 1024]           --                        --
│    │    │    └─LayerNorm: 4-297                  [10, 197, 1024]           [10, 197, 1024]           2,048                     20,480
│    │    │    └─Attention: 4-298                  [10, 197, 1024]           [10, 197, 1024]           --                        --
│    │    │    │    └─Linear: 5-506                [10, 197, 1024]           [10, 197, 3072]           3,148,800                 31,488,000
│    │    │    │    └─Dropout: 5-507               [10, 16, 197, 197]        [10, 16, 197, 197]        --                        --
│    │    │    │    └─Linear: 5-508                [10, 197, 1024]           [10, 197, 1024]           1,049,600                 10,496,000
│    │    │    │    └─Dropout: 5-509               [10, 197, 1024]           [10, 197, 1024]           --                        --
│    │    │    └─Identity: 4-299                   [10, 197, 1024]           [10, 197, 1024]           --                        --
│    │    │    └─LayerNorm: 4-300                  [10, 197, 1024]           [10, 197, 1024]           2,048                     20,480
│    │    │    └─MLP: 4-301                        [10, 197, 1024]           [10, 197, 1024]           --                        --
│    │    │    │    └─Linear: 5-510                [10, 197, 1024]           [10, 197, 4096]           4,198,400                 41,984,000
│    │    │    │    └─GELU: 5-511                  [10, 197, 4096]           [10, 197, 4096]           --                        --
│    │    │    │    └─Dropout: 5-512               [10, 197, 4096]           [10, 197, 4096]           --                        --
│    │    │    │    └─Linear: 5-513                [10, 197, 4096]           [10, 197, 1024]           4,195,328                 41,953,280
│    │    │    │    └─Dropout: 5-514               [10, 197, 1024]           [10, 197, 1024]           --                        --
│    │    │    └─Identity: 4-302                   [10, 197, 1024]           [10, 197, 1024]           --                        --
│    │    └─Block: 3-31                            [10, 197, 1024]           [10, 197, 1024]           --                        --
│    │    │    └─LayerNorm: 4-303                  [10, 197, 1024]           [10, 197, 1024]           2,048                     20,480
│    │    │    └─Attention: 4-304                  [10, 197, 1024]           [10, 197, 1024]           --                        --
│    │    │    │    └─Linear: 5-515                [10, 197, 1024]           [10, 197, 3072]           3,148,800                 31,488,000
│    │    │    │    └─Dropout: 5-516               [10, 16, 197, 197]        [10, 16, 197, 197]        --                        --
│    │    │    │    └─Linear: 5-517                [10, 197, 1024]           [10, 197, 1024]           1,049,600                 10,496,000
│    │    │    │    └─Dropout: 5-518               [10, 197, 1024]           [10, 197, 1024]           --                        --
│    │    │    └─Identity: 4-305                   [10, 197, 1024]           [10, 197, 1024]           --                        --
│    │    │    └─LayerNorm: 4-306                  [10, 197, 1024]           [10, 197, 1024]           2,048                     20,480
│    │    │    └─MLP: 4-307                        [10, 197, 1024]           [10, 197, 1024]           --                        --
│    │    │    │    └─Linear: 5-519                [10, 197, 1024]           [10, 197, 4096]           4,198,400                 41,984,000
│    │    │    │    └─GELU: 5-520                  [10, 197, 4096]           [10, 197, 4096]           --                        --
│    │    │    │    └─Dropout: 5-521               [10, 197, 4096]           [10, 197, 4096]           --                        --
│    │    │    │    └─Linear: 5-522                [10, 197, 4096]           [10, 197, 1024]           4,195,328                 41,953,280
│    │    │    │    └─Dropout: 5-523               [10, 197, 1024]           [10, 197, 1024]           --                        --
│    │    │    └─Identity: 4-308                   [10, 197, 1024]           [10, 197, 1024]           --                        --
│    │    └─Block: 3-32                            [10, 197, 1024]           [10, 197, 1024]           --                        --
│    │    │    └─LayerNorm: 4-309                  [10, 197, 1024]           [10, 197, 1024]           2,048                     20,480
│    │    │    └─Attention: 4-310                  [10, 197, 1024]           [10, 197, 1024]           --                        --
│    │    │    │    └─Linear: 5-524                [10, 197, 1024]           [10, 197, 3072]           3,148,800                 31,488,000
│    │    │    │    └─Dropout: 5-525               [10, 16, 197, 197]        [10, 16, 197, 197]        --                        --
│    │    │    │    └─Linear: 5-526                [10, 197, 1024]           [10, 197, 1024]           1,049,600                 10,496,000
│    │    │    │    └─Dropout: 5-527               [10, 197, 1024]           [10, 197, 1024]           --                        --
│    │    │    └─Identity: 4-311                   [10, 197, 1024]           [10, 197, 1024]           --                        --
│    │    │    └─LayerNorm: 4-312                  [10, 197, 1024]           [10, 197, 1024]           2,048                     20,480
│    │    │    └─MLP: 4-313                        [10, 197, 1024]           [10, 197, 1024]           --                        --
│    │    │    │    └─Linear: 5-528                [10, 197, 1024]           [10, 197, 4096]           4,198,400                 41,984,000
│    │    │    │    └─GELU: 5-529                  [10, 197, 4096]           [10, 197, 4096]           --                        --
│    │    │    │    └─Dropout: 5-530               [10, 197, 4096]           [10, 197, 4096]           --                        --
│    │    │    │    └─Linear: 5-531                [10, 197, 4096]           [10, 197, 1024]           4,195,328                 41,953,280
│    │    │    │    └─Dropout: 5-532               [10, 197, 1024]           [10, 197, 1024]           --                        --
│    │    │    └─Identity: 4-314                   [10, 197, 1024]           [10, 197, 1024]           --                        --
│    │    └─Block: 3-33                            [10, 197, 1024]           [10, 197, 1024]           --                        --
│    │    │    └─LayerNorm: 4-315                  [10, 197, 1024]           [10, 197, 1024]           2,048                     20,480
│    │    │    └─Attention: 4-316                  [10, 197, 1024]           [10, 197, 1024]           --                        --
│    │    │    │    └─Linear: 5-533                [10, 197, 1024]           [10, 197, 3072]           3,148,800                 31,488,000
│    │    │    │    └─Dropout: 5-534               [10, 16, 197, 197]        [10, 16, 197, 197]        --                        --
│    │    │    │    └─Linear: 5-535                [10, 197, 1024]           [10, 197, 1024]           1,049,600                 10,496,000
│    │    │    │    └─Dropout: 5-536               [10, 197, 1024]           [10, 197, 1024]           --                        --
│    │    │    └─Identity: 4-317                   [10, 197, 1024]           [10, 197, 1024]           --                        --
│    │    │    └─LayerNorm: 4-318                  [10, 197, 1024]           [10, 197, 1024]           2,048                     20,480
│    │    │    └─MLP: 4-319                        [10, 197, 1024]           [10, 197, 1024]           --                        --
│    │    │    │    └─Linear: 5-537                [10, 197, 1024]           [10, 197, 4096]           4,198,400                 41,984,000
│    │    │    │    └─GELU: 5-538                  [10, 197, 4096]           [10, 197, 4096]           --                        --
│    │    │    │    └─Dropout: 5-539               [10, 197, 4096]           [10, 197, 4096]           --                        --
│    │    │    │    └─Linear: 5-540                [10, 197, 4096]           [10, 197, 1024]           4,195,328                 41,953,280
│    │    │    │    └─Dropout: 5-541               [10, 197, 1024]           [10, 197, 1024]           --                        --
│    │    │    └─Identity: 4-320                   [10, 197, 1024]           [10, 197, 1024]           --                        --
│    │    └─Block: 3-34                            [10, 197, 1024]           [10, 197, 1024]           --                        --
│    │    │    └─LayerNorm: 4-321                  [10, 197, 1024]           [10, 197, 1024]           2,048                     20,480
│    │    │    └─Attention: 4-322                  [10, 197, 1024]           [10, 197, 1024]           --                        --
│    │    │    │    └─Linear: 5-542                [10, 197, 1024]           [10, 197, 3072]           3,148,800                 31,488,000
│    │    │    │    └─Dropout: 5-543               [10, 16, 197, 197]        [10, 16, 197, 197]        --                        --
│    │    │    │    └─Linear: 5-544                [10, 197, 1024]           [10, 197, 1024]           1,049,600                 10,496,000
│    │    │    │    └─Dropout: 5-545               [10, 197, 1024]           [10, 197, 1024]           --                        --
│    │    │    └─Identity: 4-323                   [10, 197, 1024]           [10, 197, 1024]           --                        --
│    │    │    └─LayerNorm: 4-324                  [10, 197, 1024]           [10, 197, 1024]           2,048                     20,480
│    │    │    └─MLP: 4-325                        [10, 197, 1024]           [10, 197, 1024]           --                        --
│    │    │    │    └─Linear: 5-546                [10, 197, 1024]           [10, 197, 4096]           4,198,400                 41,984,000
│    │    │    │    └─GELU: 5-547                  [10, 197, 4096]           [10, 197, 4096]           --                        --
│    │    │    │    └─Dropout: 5-548               [10, 197, 4096]           [10, 197, 4096]           --                        --
│    │    │    │    └─Linear: 5-549                [10, 197, 4096]           [10, 197, 1024]           4,195,328                 41,953,280
│    │    │    │    └─Dropout: 5-550               [10, 197, 1024]           [10, 197, 1024]           --                        --
│    │    │    └─Identity: 4-326                   [10, 197, 1024]           [10, 197, 1024]           --                        --
│    │    └─Block: 3-35                            [10, 197, 1024]           [10, 197, 1024]           --                        --
│    │    │    └─LayerNorm: 4-327                  [10, 197, 1024]           [10, 197, 1024]           2,048                     20,480
│    │    │    └─Attention: 4-328                  [10, 197, 1024]           [10, 197, 1024]           --                        --
│    │    │    │    └─Linear: 5-551                [10, 197, 1024]           [10, 197, 3072]           3,148,800                 31,488,000
│    │    │    │    └─Dropout: 5-552               [10, 16, 197, 197]        [10, 16, 197, 197]        --                        --
│    │    │    │    └─Linear: 5-553                [10, 197, 1024]           [10, 197, 1024]           1,049,600                 10,496,000
│    │    │    │    └─Dropout: 5-554               [10, 197, 1024]           [10, 197, 1024]           --                        --
│    │    │    └─Identity: 4-329                   [10, 197, 1024]           [10, 197, 1024]           --                        --
│    │    │    └─LayerNorm: 4-330                  [10, 197, 1024]           [10, 197, 1024]           2,048                     20,480
│    │    │    └─MLP: 4-331                        [10, 197, 1024]           [10, 197, 1024]           --                        --
│    │    │    │    └─Linear: 5-555                [10, 197, 1024]           [10, 197, 4096]           4,198,400                 41,984,000
│    │    │    │    └─GELU: 5-556                  [10, 197, 4096]           [10, 197, 4096]           --                        --
│    │    │    │    └─Dropout: 5-557               [10, 197, 4096]           [10, 197, 4096]           --                        --
│    │    │    │    └─Linear: 5-558                [10, 197, 4096]           [10, 197, 1024]           4,195,328                 41,953,280
│    │    │    │    └─Dropout: 5-559               [10, 197, 1024]           [10, 197, 1024]           --                        --
│    │    │    └─Identity: 4-332                   [10, 197, 1024]           [10, 197, 1024]           --                        --
│    │    └─Block: 3-36                            [10, 197, 1024]           [10, 197, 1024]           --                        --
│    │    │    └─LayerNorm: 4-333                  [10, 197, 1024]           [10, 197, 1024]           2,048                     20,480
│    │    │    └─Attention: 4-334                  [10, 197, 1024]           [10, 197, 1024]           --                        --
│    │    │    │    └─Linear: 5-560                [10, 197, 1024]           [10, 197, 3072]           3,148,800                 31,488,000
│    │    │    │    └─Dropout: 5-561               [10, 16, 197, 197]        [10, 16, 197, 197]        --                        --
│    │    │    │    └─Linear: 5-562                [10, 197, 1024]           [10, 197, 1024]           1,049,600                 10,496,000
│    │    │    │    └─Dropout: 5-563               [10, 197, 1024]           [10, 197, 1024]           --                        --
│    │    │    └─Identity: 4-335                   [10, 197, 1024]           [10, 197, 1024]           --                        --
│    │    │    └─LayerNorm: 4-336                  [10, 197, 1024]           [10, 197, 1024]           2,048                     20,480
│    │    │    └─MLP: 4-337                        [10, 197, 1024]           [10, 197, 1024]           --                        --
│    │    │    │    └─Linear: 5-564                [10, 197, 1024]           [10, 197, 4096]           4,198,400                 41,984,000
│    │    │    │    └─GELU: 5-565                  [10, 197, 4096]           [10, 197, 4096]           --                        --
│    │    │    │    └─Dropout: 5-566               [10, 197, 4096]           [10, 197, 4096]           --                        --
│    │    │    │    └─Linear: 5-567                [10, 197, 4096]           [10, 197, 1024]           4,195,328                 41,953,280
│    │    │    │    └─Dropout: 5-568               [10, 197, 1024]           [10, 197, 1024]           --                        --
│    │    │    └─Identity: 4-338                   [10, 197, 1024]           [10, 197, 1024]           --                        --
│    │    └─Block: 3-37                            [10, 197, 1024]           [10, 197, 1024]           --                        --
│    │    │    └─LayerNorm: 4-339                  [10, 197, 1024]           [10, 197, 1024]           2,048                     20,480
│    │    │    └─Attention: 4-340                  [10, 197, 1024]           [10, 197, 1024]           --                        --
│    │    │    │    └─Linear: 5-569                [10, 197, 1024]           [10, 197, 3072]           3,148,800                 31,488,000
│    │    │    │    └─Dropout: 5-570               [10, 16, 197, 197]        [10, 16, 197, 197]        --                        --
│    │    │    │    └─Linear: 5-571                [10, 197, 1024]           [10, 197, 1024]           1,049,600                 10,496,000
│    │    │    │    └─Dropout: 5-572               [10, 197, 1024]           [10, 197, 1024]           --                        --
│    │    │    └─Identity: 4-341                   [10, 197, 1024]           [10, 197, 1024]           --                        --
│    │    │    └─LayerNorm: 4-342                  [10, 197, 1024]           [10, 197, 1024]           2,048                     20,480
│    │    │    └─MLP: 4-343                        [10, 197, 1024]           [10, 197, 1024]           --                        --
│    │    │    │    └─Linear: 5-573                [10, 197, 1024]           [10, 197, 4096]           4,198,400                 41,984,000
│    │    │    │    └─GELU: 5-574                  [10, 197, 4096]           [10, 197, 4096]           --                        --
│    │    │    │    └─Dropout: 5-575               [10, 197, 4096]           [10, 197, 4096]           --                        --
│    │    │    │    └─Linear: 5-576                [10, 197, 4096]           [10, 197, 1024]           4,195,328                 41,953,280
│    │    │    │    └─Dropout: 5-577               [10, 197, 1024]           [10, 197, 1024]           --                        --
│    │    │    └─Identity: 4-344                   [10, 197, 1024]           [10, 197, 1024]           --                        --
│    │    └─Block: 3-38                            [10, 197, 1024]           [10, 197, 1024]           --                        --
│    │    │    └─LayerNorm: 4-345                  [10, 197, 1024]           [10, 197, 1024]           2,048                     20,480
│    │    │    └─Attention: 4-346                  [10, 197, 1024]           [10, 197, 1024]           --                        --
│    │    │    │    └─Linear: 5-578                [10, 197, 1024]           [10, 197, 3072]           3,148,800                 31,488,000
│    │    │    │    └─Dropout: 5-579               [10, 16, 197, 197]        [10, 16, 197, 197]        --                        --
│    │    │    │    └─Linear: 5-580                [10, 197, 1024]           [10, 197, 1024]           1,049,600                 10,496,000
│    │    │    │    └─Dropout: 5-581               [10, 197, 1024]           [10, 197, 1024]           --                        --
│    │    │    └─Identity: 4-347                   [10, 197, 1024]           [10, 197, 1024]           --                        --
│    │    │    └─LayerNorm: 4-348                  [10, 197, 1024]           [10, 197, 1024]           2,048                     20,480
│    │    │    └─MLP: 4-349                        [10, 197, 1024]           [10, 197, 1024]           --                        --
│    │    │    │    └─Linear: 5-582                [10, 197, 1024]           [10, 197, 4096]           4,198,400                 41,984,000
│    │    │    │    └─GELU: 5-583                  [10, 197, 4096]           [10, 197, 4096]           --                        --
│    │    │    │    └─Dropout: 5-584               [10, 197, 4096]           [10, 197, 4096]           --                        --
│    │    │    │    └─Linear: 5-585                [10, 197, 4096]           [10, 197, 1024]           4,195,328                 41,953,280
│    │    │    │    └─Dropout: 5-586               [10, 197, 1024]           [10, 197, 1024]           --                        --
│    │    │    └─Identity: 4-350                   [10, 197, 1024]           [10, 197, 1024]           --                        --
│    │    └─Block: 3-39                            [10, 197, 1024]           [10, 197, 1024]           --                        --
│    │    │    └─LayerNorm: 4-351                  [10, 197, 1024]           [10, 197, 1024]           2,048                     20,480
│    │    │    └─Attention: 4-352                  [10, 197, 1024]           [10, 197, 1024]           --                        --
│    │    │    │    └─Linear: 5-587                [10, 197, 1024]           [10, 197, 3072]           3,148,800                 31,488,000
│    │    │    │    └─Dropout: 5-588               [10, 16, 197, 197]        [10, 16, 197, 197]        --                        --
│    │    │    │    └─Linear: 5-589                [10, 197, 1024]           [10, 197, 1024]           1,049,600                 10,496,000
│    │    │    │    └─Dropout: 5-590               [10, 197, 1024]           [10, 197, 1024]           --                        --
│    │    │    └─Identity: 4-353                   [10, 197, 1024]           [10, 197, 1024]           --                        --
│    │    │    └─LayerNorm: 4-354                  [10, 197, 1024]           [10, 197, 1024]           2,048                     20,480
│    │    │    └─MLP: 4-355                        [10, 197, 1024]           [10, 197, 1024]           --                        --
│    │    │    │    └─Linear: 5-591                [10, 197, 1024]           [10, 197, 4096]           4,198,400                 41,984,000
│    │    │    │    └─GELU: 5-592                  [10, 197, 4096]           [10, 197, 4096]           --                        --
│    │    │    │    └─Dropout: 5-593               [10, 197, 4096]           [10, 197, 4096]           --                        --
│    │    │    │    └─Linear: 5-594                [10, 197, 4096]           [10, 197, 1024]           4,195,328                 41,953,280
│    │    │    │    └─Dropout: 5-595               [10, 197, 1024]           [10, 197, 1024]           --                        --
│    │    │    └─Identity: 4-356                   [10, 197, 1024]           [10, 197, 1024]           --                        --
│    │    └─Block: 3-40                            [10, 197, 1024]           [10, 197, 1024]           --                        --
│    │    │    └─LayerNorm: 4-357                  [10, 197, 1024]           [10, 197, 1024]           2,048                     20,480
│    │    │    └─Attention: 4-358                  [10, 197, 1024]           [10, 197, 1024]           --                        --
│    │    │    │    └─Linear: 5-596                [10, 197, 1024]           [10, 197, 3072]           3,148,800                 31,488,000
│    │    │    │    └─Dropout: 5-597               [10, 16, 197, 197]        [10, 16, 197, 197]        --                        --
│    │    │    │    └─Linear: 5-598                [10, 197, 1024]           [10, 197, 1024]           1,049,600                 10,496,000
│    │    │    │    └─Dropout: 5-599               [10, 197, 1024]           [10, 197, 1024]           --                        --
│    │    │    └─Identity: 4-359                   [10, 197, 1024]           [10, 197, 1024]           --                        --
│    │    │    └─LayerNorm: 4-360                  [10, 197, 1024]           [10, 197, 1024]           2,048                     20,480
│    │    │    └─MLP: 4-361                        [10, 197, 1024]           [10, 197, 1024]           --                        --
│    │    │    │    └─Linear: 5-600                [10, 197, 1024]           [10, 197, 4096]           4,198,400                 41,984,000
│    │    │    │    └─GELU: 5-601                  [10, 197, 4096]           [10, 197, 4096]           --                        --
│    │    │    │    └─Dropout: 5-602               [10, 197, 4096]           [10, 197, 4096]           --                        --
│    │    │    │    └─Linear: 5-603                [10, 197, 4096]           [10, 197, 1024]           4,195,328                 41,953,280
│    │    │    │    └─Dropout: 5-604               [10, 197, 1024]           [10, 197, 1024]           --                        --
│    │    │    └─Identity: 4-362                   [10, 197, 1024]           [10, 197, 1024]           --                        --
│    │    └─Block: 3-41                            [10, 197, 1024]           [10, 197, 1024]           --                        --
│    │    │    └─LayerNorm: 4-363                  [10, 197, 1024]           [10, 197, 1024]           2,048                     20,480
│    │    │    └─Attention: 4-364                  [10, 197, 1024]           [10, 197, 1024]           --                        --
│    │    │    │    └─Linear: 5-605                [10, 197, 1024]           [10, 197, 3072]           3,148,800                 31,488,000
│    │    │    │    └─Dropout: 5-606               [10, 16, 197, 197]        [10, 16, 197, 197]        --                        --
│    │    │    │    └─Linear: 5-607                [10, 197, 1024]           [10, 197, 1024]           1,049,600                 10,496,000
│    │    │    │    └─Dropout: 5-608               [10, 197, 1024]           [10, 197, 1024]           --                        --
│    │    │    └─Identity: 4-365                   [10, 197, 1024]           [10, 197, 1024]           --                        --
│    │    │    └─LayerNorm: 4-366                  [10, 197, 1024]           [10, 197, 1024]           2,048                     20,480
│    │    │    └─MLP: 4-367                        [10, 197, 1024]           [10, 197, 1024]           --                        --
│    │    │    │    └─Linear: 5-609                [10, 197, 1024]           [10, 197, 4096]           4,198,400                 41,984,000
│    │    │    │    └─GELU: 5-610                  [10, 197, 4096]           [10, 197, 4096]           --                        --
│    │    │    │    └─Dropout: 5-611               [10, 197, 4096]           [10, 197, 4096]           --                        --
│    │    │    │    └─Linear: 5-612                [10, 197, 4096]           [10, 197, 1024]           4,195,328                 41,953,280
│    │    │    │    └─Dropout: 5-613               [10, 197, 1024]           [10, 197, 1024]           --                        --
│    │    │    └─Identity: 4-368                   [10, 197, 1024]           [10, 197, 1024]           --                        --
│    │    └─Block: 3-42                            [10, 197, 1024]           [10, 197, 1024]           --                        --
│    │    │    └─LayerNorm: 4-369                  [10, 197, 1024]           [10, 197, 1024]           2,048                     20,480
│    │    │    └─Attention: 4-370                  [10, 197, 1024]           [10, 197, 1024]           --                        --
│    │    │    │    └─Linear: 5-614                [10, 197, 1024]           [10, 197, 3072]           3,148,800                 31,488,000
│    │    │    │    └─Dropout: 5-615               [10, 16, 197, 197]        [10, 16, 197, 197]        --                        --
│    │    │    │    └─Linear: 5-616                [10, 197, 1024]           [10, 197, 1024]           1,049,600                 10,496,000
│    │    │    │    └─Dropout: 5-617               [10, 197, 1024]           [10, 197, 1024]           --                        --
│    │    │    └─Identity: 4-371                   [10, 197, 1024]           [10, 197, 1024]           --                        --
│    │    │    └─LayerNorm: 4-372                  [10, 197, 1024]           [10, 197, 1024]           2,048                     20,480
│    │    │    └─MLP: 4-373                        [10, 197, 1024]           [10, 197, 1024]           --                        --
│    │    │    │    └─Linear: 5-618                [10, 197, 1024]           [10, 197, 4096]           4,198,400                 41,984,000
│    │    │    │    └─GELU: 5-619                  [10, 197, 4096]           [10, 197, 4096]           --                        --
│    │    │    │    └─Dropout: 5-620               [10, 197, 4096]           [10, 197, 4096]           --                        --
│    │    │    │    └─Linear: 5-621                [10, 197, 4096]           [10, 197, 1024]           4,195,328                 41,953,280
│    │    │    │    └─Dropout: 5-622               [10, 197, 1024]           [10, 197, 1024]           --                        --
│    │    │    └─Identity: 4-374                   [10, 197, 1024]           [10, 197, 1024]           --                        --
│    │    └─Block: 3-43                            [10, 197, 1024]           [10, 197, 1024]           --                        --
│    │    │    └─LayerNorm: 4-375                  [10, 197, 1024]           [10, 197, 1024]           2,048                     20,480
│    │    │    └─Attention: 4-376                  [10, 197, 1024]           [10, 197, 1024]           --                        --
│    │    │    │    └─Linear: 5-623                [10, 197, 1024]           [10, 197, 3072]           3,148,800                 31,488,000
│    │    │    │    └─Dropout: 5-624               [10, 16, 197, 197]        [10, 16, 197, 197]        --                        --
│    │    │    │    └─Linear: 5-625                [10, 197, 1024]           [10, 197, 1024]           1,049,600                 10,496,000
│    │    │    │    └─Dropout: 5-626               [10, 197, 1024]           [10, 197, 1024]           --                        --
│    │    │    └─Identity: 4-377                   [10, 197, 1024]           [10, 197, 1024]           --                        --
│    │    │    └─LayerNorm: 4-378                  [10, 197, 1024]           [10, 197, 1024]           2,048                     20,480
│    │    │    └─MLP: 4-379                        [10, 197, 1024]           [10, 197, 1024]           --                        --
│    │    │    │    └─Linear: 5-627                [10, 197, 1024]           [10, 197, 4096]           4,198,400                 41,984,000
│    │    │    │    └─GELU: 5-628                  [10, 197, 4096]           [10, 197, 4096]           --                        --
│    │    │    │    └─Dropout: 5-629               [10, 197, 4096]           [10, 197, 4096]           --                        --
│    │    │    │    └─Linear: 5-630                [10, 197, 4096]           [10, 197, 1024]           4,195,328                 41,953,280
│    │    │    │    └─Dropout: 5-631               [10, 197, 1024]           [10, 197, 1024]           --                        --
│    │    │    └─Identity: 4-380                   [10, 197, 1024]           [10, 197, 1024]           --                        --
│    │    └─Block: 3-44                            [10, 197, 1024]           [10, 197, 1024]           --                        --
│    │    │    └─LayerNorm: 4-381                  [10, 197, 1024]           [10, 197, 1024]           2,048                     20,480
│    │    │    └─Attention: 4-382                  [10, 197, 1024]           [10, 197, 1024]           --                        --
│    │    │    │    └─Linear: 5-632                [10, 197, 1024]           [10, 197, 3072]           3,148,800                 31,488,000
│    │    │    │    └─Dropout: 5-633               [10, 16, 197, 197]        [10, 16, 197, 197]        --                        --
│    │    │    │    └─Linear: 5-634                [10, 197, 1024]           [10, 197, 1024]           1,049,600                 10,496,000
│    │    │    │    └─Dropout: 5-635               [10, 197, 1024]           [10, 197, 1024]           --                        --
│    │    │    └─Identity: 4-383                   [10, 197, 1024]           [10, 197, 1024]           --                        --
│    │    │    └─LayerNorm: 4-384                  [10, 197, 1024]           [10, 197, 1024]           2,048                     20,480
│    │    │    └─MLP: 4-385                        [10, 197, 1024]           [10, 197, 1024]           --                        --
│    │    │    │    └─Linear: 5-636                [10, 197, 1024]           [10, 197, 4096]           4,198,400                 41,984,000
│    │    │    │    └─GELU: 5-637                  [10, 197, 4096]           [10, 197, 4096]           --                        --
│    │    │    │    └─Dropout: 5-638               [10, 197, 4096]           [10, 197, 4096]           --                        --
│    │    │    │    └─Linear: 5-639                [10, 197, 4096]           [10, 197, 1024]           4,195,328                 41,953,280
│    │    │    │    └─Dropout: 5-640               [10, 197, 1024]           [10, 197, 1024]           --                        --
│    │    │    └─Identity: 4-386                   [10, 197, 1024]           [10, 197, 1024]           --                        --
│    │    └─Block: 3-45                            [10, 197, 1024]           [10, 197, 1024]           --                        --
│    │    │    └─LayerNorm: 4-387                  [10, 197, 1024]           [10, 197, 1024]           2,048                     20,480
│    │    │    └─Attention: 4-388                  [10, 197, 1024]           [10, 197, 1024]           --                        --
│    │    │    │    └─Linear: 5-641                [10, 197, 1024]           [10, 197, 3072]           3,148,800                 31,488,000
│    │    │    │    └─Dropout: 5-642               [10, 16, 197, 197]        [10, 16, 197, 197]        --                        --
│    │    │    │    └─Linear: 5-643                [10, 197, 1024]           [10, 197, 1024]           1,049,600                 10,496,000
│    │    │    │    └─Dropout: 5-644               [10, 197, 1024]           [10, 197, 1024]           --                        --
│    │    │    └─Identity: 4-389                   [10, 197, 1024]           [10, 197, 1024]           --                        --
│    │    │    └─LayerNorm: 4-390                  [10, 197, 1024]           [10, 197, 1024]           2,048                     20,480
│    │    │    └─MLP: 4-391                        [10, 197, 1024]           [10, 197, 1024]           --                        --
│    │    │    │    └─Linear: 5-645                [10, 197, 1024]           [10, 197, 4096]           4,198,400                 41,984,000
│    │    │    │    └─GELU: 5-646                  [10, 197, 4096]           [10, 197, 4096]           --                        --
│    │    │    │    └─Dropout: 5-647               [10, 197, 4096]           [10, 197, 4096]           --                        --
│    │    │    │    └─Linear: 5-648                [10, 197, 4096]           [10, 197, 1024]           4,195,328                 41,953,280
│    │    │    │    └─Dropout: 5-649               [10, 197, 1024]           [10, 197, 1024]           --                        --
│    │    │    └─Identity: 4-392                   [10, 197, 1024]           [10, 197, 1024]           --                        --
│    │    └─Block: 3-46                            [10, 197, 1024]           [10, 197, 1024]           --                        --
│    │    │    └─LayerNorm: 4-393                  [10, 197, 1024]           [10, 197, 1024]           2,048                     20,480
│    │    │    └─Attention: 4-394                  [10, 197, 1024]           [10, 197, 1024]           --                        --
│    │    │    │    └─Linear: 5-650                [10, 197, 1024]           [10, 197, 3072]           3,148,800                 31,488,000
│    │    │    │    └─Dropout: 5-651               [10, 16, 197, 197]        [10, 16, 197, 197]        --                        --
│    │    │    │    └─Linear: 5-652                [10, 197, 1024]           [10, 197, 1024]           1,049,600                 10,496,000
│    │    │    │    └─Dropout: 5-653               [10, 197, 1024]           [10, 197, 1024]           --                        --
│    │    │    └─Identity: 4-395                   [10, 197, 1024]           [10, 197, 1024]           --                        --
│    │    │    └─LayerNorm: 4-396                  [10, 197, 1024]           [10, 197, 1024]           2,048                     20,480
│    │    │    └─MLP: 4-397                        [10, 197, 1024]           [10, 197, 1024]           --                        --
│    │    │    │    └─Linear: 5-654                [10, 197, 1024]           [10, 197, 4096]           4,198,400                 41,984,000
│    │    │    │    └─GELU: 5-655                  [10, 197, 4096]           [10, 197, 4096]           --                        --
│    │    │    │    └─Dropout: 5-656               [10, 197, 4096]           [10, 197, 4096]           --                        --
│    │    │    │    └─Linear: 5-657                [10, 197, 4096]           [10, 197, 1024]           4,195,328                 41,953,280
│    │    │    │    └─Dropout: 5-658               [10, 197, 1024]           [10, 197, 1024]           --                        --
│    │    │    └─Identity: 4-398                   [10, 197, 1024]           [10, 197, 1024]           --                        --
│    │    └─Block: 3-47                            [10, 197, 1024]           [10, 197, 1024]           --                        --
│    │    │    └─LayerNorm: 4-399                  [10, 197, 1024]           [10, 197, 1024]           2,048                     20,480
│    │    │    └─Attention: 4-400                  [10, 197, 1024]           [10, 197, 1024]           --                        --
│    │    │    │    └─Linear: 5-659                [10, 197, 1024]           [10, 197, 3072]           3,148,800                 31,488,000
│    │    │    │    └─Dropout: 5-660               [10, 16, 197, 197]        [10, 16, 197, 197]        --                        --
│    │    │    │    └─Linear: 5-661                [10, 197, 1024]           [10, 197, 1024]           1,049,600                 10,496,000
│    │    │    │    └─Dropout: 5-662               [10, 197, 1024]           [10, 197, 1024]           --                        --
│    │    │    └─Identity: 4-401                   [10, 197, 1024]           [10, 197, 1024]           --                        --
│    │    │    └─LayerNorm: 4-402                  [10, 197, 1024]           [10, 197, 1024]           2,048                     20,480
│    │    │    └─MLP: 4-403                        [10, 197, 1024]           [10, 197, 1024]           --                        --
│    │    │    │    └─Linear: 5-663                [10, 197, 1024]           [10, 197, 4096]           4,198,400                 41,984,000
│    │    │    │    └─GELU: 5-664                  [10, 197, 4096]           [10, 197, 4096]           --                        --
│    │    │    │    └─Dropout: 5-665               [10, 197, 4096]           [10, 197, 4096]           --                        --
│    │    │    │    └─Linear: 5-666                [10, 197, 4096]           [10, 197, 1024]           4,195,328                 41,953,280
│    │    │    │    └─Dropout: 5-667               [10, 197, 1024]           [10, 197, 1024]           --                        --
│    │    │    └─Identity: 4-404                   [10, 197, 1024]           [10, 197, 1024]           --                        --
│    │    └─Block: 3-48                            [10, 197, 1024]           [10, 197, 1024]           --                        --
│    │    │    └─LayerNorm: 4-405                  [10, 197, 1024]           [10, 197, 1024]           2,048                     20,480
│    │    │    └─Attention: 4-406                  [10, 197, 1024]           [10, 197, 1024]           --                        --
│    │    │    │    └─Linear: 5-668                [10, 197, 1024]           [10, 197, 3072]           3,148,800                 31,488,000
│    │    │    │    └─Dropout: 5-669               [10, 16, 197, 197]        [10, 16, 197, 197]        --                        --
│    │    │    │    └─Linear: 5-670                [10, 197, 1024]           [10, 197, 1024]           1,049,600                 10,496,000
│    │    │    │    └─Dropout: 5-671               [10, 197, 1024]           [10, 197, 1024]           --                        --
│    │    │    └─Identity: 4-407                   [10, 197, 1024]           [10, 197, 1024]           --                        --
│    │    │    └─LayerNorm: 4-408                  [10, 197, 1024]           [10, 197, 1024]           2,048                     20,480
│    │    │    └─MLP: 4-409                        [10, 197, 1024]           [10, 197, 1024]           --                        --
│    │    │    │    └─Linear: 5-672                [10, 197, 1024]           [10, 197, 4096]           4,198,400                 41,984,000
│    │    │    │    └─GELU: 5-673                  [10, 197, 4096]           [10, 197, 4096]           --                        --
│    │    │    │    └─Dropout: 5-674               [10, 197, 4096]           [10, 197, 4096]           --                        --
│    │    │    │    └─Linear: 5-675                [10, 197, 4096]           [10, 197, 1024]           4,195,328                 41,953,280
│    │    │    │    └─Dropout: 5-676               [10, 197, 1024]           [10, 197, 1024]           --                        --
│    │    │    └─Identity: 4-410                   [10, 197, 1024]           [10, 197, 1024]           --                        --
│    └─LayerNorm: 2-15                             [10, 197, 1024]           [10, 197, 1024]           2,048                     20,480
│    └─Linear: 2-16                                [10, 1024]                [10, 1024]                1,049,600                 10,496,000
│    └─Linear: 2-17                                [10, 1024]                [10, 2]                   2,050                     20,500
├─Softmax: 1-3                                     [10, 2]                   [10, 2]                   --                        --
├─Softmax: 1-4                                     [10, 2]                   [10, 2]                   --                        --
======================================================================================================================================================
Total params: 449,070,798
Trainable params: 449,070,798
Non-trainable params: 0
Total mult-adds (G): 267.12
======================================================================================================================================================
…
